models_DQN_pytorch/best.pt (torch, 591530 bytes, 60 tensors)

feature_layer.0.weight f4 [128, 12]
000000 af d5 9f 3c 49 48 62 bd b4 ba 4b 3e 54 dc 82 3e
       0.019511072 -0.055244718 0.1989544 0.25558722
000010 f3 bb 6a be 87 40 f8 3c 6b 70 a1 3e f3 0b 55 be
       -0.2292326 0.030304207 0.3153108 -0.2080534
000020 56 5c 79 be 06 50 26 be b2 72 77 be 82 a3 87 3e
       -0.2435163 -0.16241464 -0.24164847 0.26491934
000030 02 68 8e bc 29 fa 4d 3e 1f ed 75 bd 4d ba 7b be
       -0.01738358 0.2011496 -0.06004059 -0.24582787
000040 4e 01 34 3d 68 eb 6f be 0d f0 fe bd fa fd 05 3e
       0.043946557 -0.23429644 -0.1244813 0.13085166
000050 74 e6 81 be 4f 9f 30 bb 3a 75 f1 3c c0 95 69 be
       -0.25371134 -0.0026950424 0.029474843 -0.22811031
000060 b1 e7 10 be ea 94 84 bd 00 33 5a be 4d f1 9b 3e
       -0.14150883 -0.064737156 -0.21308517 0.30457535
000070 f9 6f 83 bd ef 56 dd bb d2 b3 8b 3e d0 47 45 bd
       -0.064178415 -0.006754748 0.2728563 -0.04816419
000080 32 37 cc bd fa b6 08 3e 2e cf 73 3d 70 c2 15 bf
       -0.09971465 0.1335105 0.059523754 -0.58499813
000090 6c 86 67 be 6d 0a ee 3d fb 4d 40 3d 69 3d 2f 3e
       -0.22609872 0.11623082 0.046949368 0.1711327
0000a0 2f 89 35 3b 8d 8e 16 3d 64 df 40 3e 46 ad 61 3e
       0.0027700176 0.03675704 0.18835217 0.22038755
0000b0 c3 82 88 be be f2 84 3e 3a 8f c9 bd 11 52 56 3e
       -0.26662263 0.25966448 -0.098417714 0.20929743
0000c0 bf fc 75 be e8 64 85 3e dc 82 95 3d 69 be 29 3e
       -0.24022196 0.26053548 0.0730035 0.16576542
0000d0 d6 08 c3 3d 7d c0 06 3d 12 a3 90 be 0e 4a 49 be
       0.0952317 0.032898415 -0.28249413 -0.19657156
0000e0 da 68 d8 bd 14 93 9a be 10 a2 84 3e 00 8f 91 be
       -0.10566874 -0.30190337 0.25904894 -0.28429413
0000f0 17 98 00 3e 46 2c 69 be f7 51 0d 3e 95 3f 5c bd
       0.12558018 -0.22770795 0.13800798 -0.053771574
000100 70 8a 9b 3d c8 74 57 be e8 58 f7 3d 7d ae 81 3e
       0.07594764 -0.21040642 0.120775044 0.25328436
000110 e6 19 84 3e 63 3f d7 3d 8f a2 86 3e 71 4b c8 3e
       0.2580101 0.10510137 0.26295897 0.39120057
000120 2a 62 26 3e 66 3d 99 3d ea dd 4e be f8 63 d0 bd
       0.16248384 0.07482414 -0.20201841 -0.101753175
000130 e9 a8 81 3e db f5 5e be 47 14 3b 3e c8 55 5c 3d
       0.2532418 -0.21773474 0.18269454 0.053792745
000140 84 fd 5b bd 28 9b 19 bd dc f9 e3 bd cb d7 a7 3e
       -0.05370857 -0.037501484 -0.11131641 0.32781824
000150 f2 7d 91 3e 94 f6 1b be 5d 9b 68 be 50 7a 43 bd
       0.284164 -0.15230781 -0.22715516 -0.04772407
000160 42 6f 06 3e 38 7a 96 be c4 8d 5b be a0 3d 52 bd
       0.13128379 -0.2939012 -0.21440798 -0.0513283
000170 64 a1 4a 3e 93 e1 8c be bd 1c 03 be 76 9a 49 bd
       0.19788128 -0.2751585 -0.12803932 -0.04921957
000180 2e 69 62 be 20 fe 0f 3e 8d de dd 3a e5 a7 ba bd
       -0.22110435 0.14061785 0.0016927287 -0.091140546
000190 a9 08 87 3e ae 1d 8b be 96 c4 82 bb 67 9f bd 3d
       0.26373795 -0.2717108 -0.00399072 0.09258919
0001a0 24 a9 1a 3e e1 dc 6c be bd 0a 8a 3e 17 a8 3c be
       0.15103585 -0.23131134 0.26961318 -0.18423496
0001b0 ca 15 68 3e c6 c3 54 be 4e 58 e4 bb 34 07 57 3e
       0.22664562 -0.20777807 -0.0069685346 0.20998842
0001c0 72 c7 a7 3d e6 9c dd 3d 3b 5b f3 3d 91 60 08 3e
       0.08192338 0.108209416 0.11882635 0.13318087
0001d0 20 e7 89 3e 23 22 87 3e 84 af 19 be e6 3f 18 ba
       0.26934147 0.26393232 -0.1500836 -0.00058078615
0001e0 6a 25 e2 3d a3 00 b6 3c 1a e7 e6 bd 6c a4 44 3e
       0.110422924 0.0222171 -0.11274548 0.19203347
0001f0 20 d2 de bd e8 b9 94 3d 45 4a 6a 3d 7e a5 2c bd
       -0.10879922 0.07262021 0.057199735 -0.042150013
000200 64 3c df 3d a6 79 b3 3e bc a5 a4 bd 0b 8d 26 bf
       0.109001905 0.35053748 -0.08039424 -0.65058964
000210 36 00 43 3e 01 a1 82 3e 21 2b 8e be 76 1c c9 3c
       0.19043049 0.2551346 -0.2776728 0.024549704
000220 6f f4 42 be 7e ab 81 be b6 3d 85 3e b5 71 5c be
       -0.19038557 -0.2532615 0.26023644 -0.21527751
000230 7c 47 72 3e 2f b1 c8 bd d0 8b 90 bd 1d 47 d0 bd
       0.23660082 -0.0979942 -0.07057917 -0.10169814
000240 cb 7a 18 be ae c2 3c 3e a5 6a 54 3d fb f0 16 be
       -0.14890592 0.1843364 0.051859517 -0.14740364
000250 19 6c 44 bd 74 b2 74 be 1a be 1f be bd bd 60 be
       -0.047954652 -0.238962 -0.15599862 -0.2194738
000260 18 ec 34 3e 03 6c 47 be b8 a1 c4 be 77 04 c9 3d
       0.17668188 -0.19474797 -0.38404632 0.09815305
000270 0f cc ba 3c cc 5a 29 3e 0a e5 69 3e 7b 77 7a be
       0.02280238 0.16538543 0.22841278 -0.2445964
000280 c5 5b 31 be 31 bb 9c bd f3 ba 92 3d 9b 96 75 3e
       -0.17320164 -0.076528914 0.07164564 0.23983233
000290 b6 3b 47 3e 23 83 9c be e8 64 8a 3e ce c1 3a be
       0.19456372 -0.305688 0.2703011 -0.18237993
0002a0 22 02 9f be 03 e5 4f be 6a 1d 1a 3e 70 ef 81 be
       -0.31056315 -0.20302205 0.15050283 -0.2537799
0002b0 26 6f 01 3e 6d aa 65 3c 8a 68 83 3e da 8e 47 3e
       0.12640056 0.014017683 0.25665694 0.19488087
0002c0 68 04 9f bd 0c 34 cf 3d 66 6d 93 3e 70 7e 3e 3d
       -0.07764512 0.10117349 0.28794402 0.0465073
0002d0 56 27 3c 3e fd 46 4d be f4 b8 97 3e a5 a2 43 bd
       0.1837438 -0.20046611 0.29633296 -0.04776253
0002e0 34 42 ef bd f9 bc 8d bd e3 a0 96 3e 61 2d 43 be
       -0.11682549 -0.06920809 0.29419622 -0.1906028
0002f0 59 4c 1b be 6b ac 66 be c6 90 18 3e 00 0b 7f be
       -0.15165843 -0.2252671 0.14898977 -0.2490654
000300 81 da 7b 3e 3b 6d e3 bb ad 42 e8 3d 06 41 78 be
       0.24595071 -0.0069405115 0.113408424 -0.24243554
000310 90 05 87 be af 82 8c bd 95 22 4a be 85 f5 e9 3d
       -0.2637143 -0.068608634 -0.19739754 0.11423782
000320 4c 47 18 3e 2d 26 81 3e 17 eb b3 be f6 17 bc bd
       0.14870948 0.25224438 -0.35140297 -0.09184258
000330 12 f1 ae bd fb c9 59 3e f1 6c 07 be 63 6b 94 3e
       -0.08542074 0.21268456 -0.13225152 0.2898818
000340 6c 06 6a be 9a ea 04 be 75 ae 4f be 26 83 4d be
       -0.22854012 -0.12980118 -0.20281394 -0.2006956
000350 68 d6 50 be 64 3a 47 3e 62 94 8a be 67 bf ee 3e
       -0.2039429 0.19455868 -0.27066332 0.46630403
000360 06 e7 66 3e 4e e7 2f be 3f 9f 25 3c dc de 45 bc
       0.22549066 -0.1717808 0.010108768 -0.01207706
000370 f4 f4 48 3e 9a ed 31 3c a2 27 e7 3d 7a 72 f0 3d
       0.19624692 0.010859871 0.11286856 0.11740585
000380 12 ac 87 be 13 18 1d 3d 21 04 5e be 66 45 80 be
       -0.26498467 0.038353037 -0.21681263 -0.25052947
000390 7a 5e 3f be 8a c3 57 3c 25 77 53 be 36 bb 04 3e
       -0.18688384 0.013169179 -0.20650919 0.1296204
0003a0 01 d0 36 3e 0c 22 de bc 84 57 90 be a9 1a d8 3d
       0.17852785 -0.027115844 -0.2819177 0.1055196
0003b0 0c 52 6f be b2 aa 86 3d e6 a1 8d 3e 71 35 28 3e
       -0.23371142 0.06575526 0.2766258 0.16426636
0003c0 5b ea fa bc bc 9c 0d be 2d 92 d4 bd ea 2b 39 be
       -0.030629328 -0.1382932 -0.10379443 -0.18083158
0003d0 24 8c 73 be 2f a3 5f be 60 b9 8d 3e 61 1a 5f 3d
       -0.23783928 -0.21839593 0.27680492 0.054468516
0003e0 e0 eb 02 3e af ca 1a be b6 56 e5 3d 88 de d4 3d
       0.12785292 -0.1511638 0.111981794 0.10394007
0003f0 13 0f 78 3e b2 75 74 be 10 58 1f bc e7 06 ef 3d
       0.242245 -0.23873022 -0.009725586 0.116712384

feature_layer.0.bias f4 [128]
000000 03 b2 85 3d 9b d0 3d 3e e4 d0 8d 3d a5 23 f5 bd
       0.06528094 0.18536608 0.06924608 -0.11969689
000010 af c1 88 be 6d 7c 64 be 2a 9b ae 3b 28 87 08 bc
       -0.2671027 -0.2231309 0.0053285556 -0.008333005
000020 8b bf a1 3d a0 b5 20 be b6 ee 41 3d 8e fe d7 bd
       0.07897862 -0.15694284 0.047346793 -0.10546599
000030 d4 a8 b8 bd e4 68 49 bd fe 17 4d 3e f0 0a de 3d
       -0.090165764 -0.049172297 0.20028684 0.1084193
000040 e7 6a 38 be f6 99 93 3e c1 83 8c 3e 10 21 c6 3d
       -0.1800953 0.288284 0.2744427 0.09674275
000050 fb fa b1 bd 94 58 c7 bd 20 2b d6 bd 86 2d cd 3d
       -0.08690449 -0.09733692 -0.10457444 0.100184485
000060 24 ae d9 bd df 3c 01 be 31 a1 07 be 1c 16 b1 bd
       -0.10628918 -0.12620877 -0.13245083 -0.08646795
000070 a4 af 85 3e d5 9d a8 bd 6f 72 63 be 17 ac 87 3e
       0.26110566 -0.08233229 -0.22211622 0.26498482
000080 23 2e 47 be b6 36 23 3c de be 78 be bf ea 04 3e
       -0.19451194 0.009961775 -0.2429156 0.12980174
000090 49 f0 a8 3e 90 00 35 3d c3 60 a5 be 20 95 6a 3e
       0.32995823 0.04418999 -0.32300386 0.22908449
0000a0 de 0a 7f be 51 39 3f be c1 a5 c3 39 bc 4c 1f bd
       -0.24906489 -0.18674208 0.00037316795 -0.03889154
0000b0 31 95 08 be 93 87 52 3e f5 cf 01 3e 0f dc a7 3e
       -0.13338162 0.2055953 0.12676986 0.3278508
0000c0 89 b6 4e 3b 48 81 0d be db 7c 6e be 93 5d e3 bd
       0.0031541905 -0.13818848 -0.23289816 -0.11101832
0000d0 e4 cd 90 3e a7 31 c5 bd f2 82 1c 3e 1b ea 3b 3e
       0.28282082 -0.09628611 0.15284327 0.18351023
0000e0 91 be b4 3c c5 9d 23 be d6 80 21 3e 7b 9f 1d 3d
       0.022063525 -0.15978153 0.15771803 0.03848217
0000f0 76 04 22 3e 48 0b 38 be 98 22 8b be 28 ba 84 3e
       0.15822014 -0.17973053 -0.2717483 0.25923276
000100 2c 5e 64 be c3 06 4d be 48 73 98 be f1 ae b9 bd
       -0.22301549 -0.2002211 -0.29775453 -0.090665706
000110 18 c9 8c bd db 14 8d 3b 06 69 ca bd ba 54 ce bd
       -0.06874293 0.0043054647 -0.09883313 -0.10074754
000120 f9 28 10 3d 7f d4 3c 3e a9 ff aa 3e 93 2d be 3d
       0.035195325 0.18440436 0.33398178 0.09286036
000130 d3 33 87 3e d1 e8 5d 3e e1 9a 9e 3b 47 4b 6e 3d
       0.26406726 0.21670844 0.0048402403 0.05817726
000140 3c f5 e3 3d eb 77 4a 3e df ea c3 3d 59 ae 8d be
       0.11130759 0.19772308 0.095662825 -0.2767208
000150 c9 db 90 be 8f 9a e2 bd d1 3d 94 be 6b e5 60 bd
       -0.28292683 -0.11064636 -0.28953412 -0.05490629
000160 fd ca 0f 3e a9 00 1f be bc e7 4b 3e 27 1e e8 3d
       0.14042278 -0.15527596 0.19912618 0.11333876
000170 a8 7d ea bd 60 72 26 be b3 9b fc 3d 3a 60 35 3e
       -0.11449748 -0.16254568 0.12334385 0.17712489
000180 2e 97 32 be 08 47 c3 3d df e5 d2 3c c8 04 cd bc
       -0.17440483 0.095350325 0.025744377 -0.025026694
000190 1e 10 e2 bd 17 e3 6a be 75 40 8d bd f7 4f 09 be
       -0.1103823 -0.2293819 -0.0689706 -0.1340941
0001a0 6c 8b cd bc e8 c9 8a 3d 82 68 46 3e 82 0c 3e 3c
       -0.025090896 0.06776792 0.19375804 0.011599662
0001b0 d8 e8 dd 3c e0 5f 89 3e eb b3 c9 3e d7 11 b2 be
       0.027088568 0.2683096 0.3939508 -0.34779236
0001c0 da 92 18 3d 39 72 87 be 86 60 f2 3c 5d 72 1b 3e
       0.037249424 -0.26454332 0.029587042 0.15180345
0001d0 70 76 fe 3d ec 4c 19 3e 2e d5 89 be 66 b7 1b be
       0.12424934 0.1497075 -0.26920456 -0.1520668
0001e0 5b 9a 00 be e1 72 34 bd ae e0 82 3e 01 66 82 3d
       -0.12558882 -0.04405487 0.25562042 0.06367112
0001f0 1e fd 9a 3e e1 4d 0f be 39 eb 57 3e 6b 6a ee 3c
       0.30271238 -0.13994552 0.21085824 0.029103478

feature_layer.2.weight f4 [128]
000000 a0 19 7c 3f 1f 16 81 3f 95 d3 89 3f ad d4 77 3f
       0.984766 1.0084876 1.0767695 0.9680889
000010 00 67 83 3f c2 99 82 3f 6b 6e 81 3f 45 8a 7b 3f
       1.0265808 1.0203173 1.0111822 0.9825786
000020 63 4f 81 3f 48 6f 74 3f b9 6e 8c 3f 58 8c 7c 3f
       1.0102352 0.954823 1.097129 0.9865165
000030 71 6c 79 3f 0b a9 79 3f a8 e6 82 3f 81 4d 82 3f
       0.97431093 0.97523564 1.0226641 1.0179902
000040 32 38 82 3f 6b a6 7b 3f e6 3e 73 3f 23 77 79 3f
       1.01734 0.9830081 0.9501785 0.97447413
000050 8c c0 7f 3f 84 34 85 3f 21 70 81 3f 99 9b 72 3f
       0.9990318 1.0406651 1.0112344 0.94768673
000060 f7 3c 84 3f 2d f6 84 3f 8d dd 7e 3f be 1a 82 3f
       1.0331105 1.0387627 0.9955681 1.0164411
000070 08 98 81 3f b1 42 87 3f 81 7c 85 3f e7 76 82 3f
       1.0124521 1.0567228 1.042862 1.0192536
000080 b3 4d 76 3f a8 af 75 3f a7 c7 87 3f c3 86 77 3f
       0.9621231 0.95971155 1.0607804 0.96690005
000090 59 3f 80 3f 4b 8c 73 3f 09 86 83 3f 06 b8 7b 3f
       1.0019332 0.95135945 1.0275279 0.9832767
0000a0 d8 cc 7b 3f 95 11 83 3f 59 7d 86 3f 59 76 83 3f
       0.9835944 1.0239741 1.0507003 1.0270492
0000b0 72 02 7f 3f 02 66 7b 3f c8 9c 75 3f bb 55 84 3f
       0.99613106 0.98202527 0.95942354 1.0338663
0000c0 ea 9c 85 3f c9 0f 76 3f da fe 82 3f b2 43 7d 3f
       1.0438511 0.96117836 1.0234025 0.9893142
0000d0 16 1b 81 3f 67 3b 7c 3f 90 24 86 3f f9 06 77 3f
       1.0086391 0.9852814 1.0479908 0.96495014
0000e0 e4 b1 75 3f a4 01 7f 3f da 07 81 3f ac 83 81 3f
       0.95974565 0.9961188 1.0080521 1.0118308
0000f0 8f 47 7a 3f 8a 20 71 3f 80 9e 7a 3f 9e 36 7f 3f
       0.9776544 0.94190276 0.978981 0.99692714
000100 90 19 84 3f e8 2a 7e 3f 1d b6 7f 3f 3c f8 70 3f
       1.0320301 0.9928422 0.9988726 0.94128776
000110 64 10 85 3f e2 f3 7f 3f e5 b5 7b 3f f1 4c 74 3f
       1.0395627 0.9998151 0.98324424 0.95429903
000120 98 82 7c 3f 7c 49 80 3f 78 67 7d 3f 5d e2 7c 3f
       0.9863677 1.0022426 0.98986006 0.987829
000130 d7 a8 7f 3f 71 05 80 3f a5 0a 7a 3f 64 68 78 3f
       0.99867004 1.000166 0.9767249 0.9703429
000140 db 71 82 3f 96 ae 79 3f 26 41 84 3f 9f 09 7d 3f
       1.0190996 0.9753202 1.0332382 0.98842806
000150 42 9c 7d 3f 5a 2b 7d 3f 47 64 7e 3f 95 c7 77 3f
       0.99066556 0.98894274 0.9937176 0.96788913
000160 cc af 7a 3f 61 41 82 3f 1a 20 7b 3f 11 8c 81 3f
       0.97924495 1.0176202 0.9809586 1.012087
000170 6a 47 82 3f 85 00 7e 3f b4 f2 76 3f e0 25 7b 3f
       1.0178044 0.9921954 0.96464086 0.9810467
000180 16 b1 83 3f fe 61 75 3f df 93 89 3f bd 0f 7d 3f
       1.0288417 0.9585265 1.0748252 0.9885214
000190 b6 8c 78 3f 2d 33 83 3f cf 22 7d 3f 6a 0e 83 3f
       0.9708971 1.0249993 0.9888124 1.0238774
0001a0 4d a2 7a 3f 6f b3 81 3f 0d 1b 6e 3f 27 9e 7b 3f
       0.979039 1.0132884 0.93010026 0.98288196
0001b0 0b 6b 78 3f 36 7c 80 3f 81 74 77 3f ad 71 88 3f
       0.97038335 1.0037906 0.96662146 1.0659691
0001c0 38 e1 77 3f 67 d8 79 3f ce fd 83 3f ce c4 77 3f
       0.9682803 0.9759583 1.031183 0.96784675
0001d0 b7 41 7c 3f ed a8 7c 3f 5e 21 81 3f fc 0b 77 3f
       0.9853777 0.9869526 1.0088308 0.9650266
0001e0 2c b7 73 3f 47 96 8b 3f bc 2e 7a 3f 16 e3 70 3f
       0.95201373 1.0905236 0.9772756 0.94096506
0001f0 a2 6d 6f 3f 8e d5 7b 3f 19 16 7c 3f fb 44 7b 3f
       0.9352666 0.98372734 0.9847122 0.9815213

feature_layer.2.bias f4 [128]
000000 81 96 50 3b a5 61 b8 bb 22 43 88 3c 13 93 a8 bc
       0.0031827989 -0.0056268745 0.016633574 -0.020577943
000010 4a 1c 9e bb eb b1 01 bd 5d f0 2f bd f4 ac 07 3c
       -0.0048251497 -0.031663816 -0.042953838 0.008280981
000020 1e b7 12 bd 9f c5 e8 bc 6b ea e3 3c 8a 47 2f 3d
       -0.035819165 -0.028414546 0.02782174 0.042792834
000030 cf 59 56 3c 63 34 e0 3b 54 fa 20 3c dc e7 0a 3d
       0.0130829355 0.0068421825 0.009825308 0.033912525
000040 98 91 13 3c c6 5c 70 3d b5 c3 13 bc 44 5e 99 3c
       0.00900688 0.058682226 -0.009018828 0.018721707
000050 d1 ea fc bb c9 d8 c5 bc 0b 47 10 bc 6a ca 0e bc
       -0.007718422 -0.024151223 -0.008806 -0.008715251
000060 f9 48 c2 bc 10 f9 d7 3c e5 b6 69 3c 3a 9b e3 3c
       -0.023716437 0.02636388 0.014264797 0.027783979
000070 2d 44 d9 3b d8 be 41 3c 1c 00 0d bb b9 5d 22 3d
       0.0066304416 0.011825286 -0.0021514958 0.039640162
000080 47 2e bf bc c2 46 b6 3c d3 b4 71 bc ad 37 4e 3d
       -0.023337496 0.022250537 -0.0147525845 0.050346065
000090 13 f6 48 3d 17 9e d2 39 16 a7 da 3a 2b 1d f4 3c
       0.0490628 0.00040172107 0.0016681876 0.029799065
0000a0 d5 5d 51 bd 77 7e 6f bc f0 ca 0a 3d 43 ca bf 3c
       -0.051114876 -0.014617554 0.033884943 0.023411876
0000b0 eb 75 df 3c ab 88 18 bd 29 3a d7 3c 2b 12 0c 3d
       0.027277907 -0.03723971 0.02627285 0.034197014
0000c0 17 61 c8 bc a2 f0 73 3c 71 70 b7 3c 82 31 da ba
       -0.024460359 0.014888914 0.022392483 -0.0016646835
0000d0 45 46 ff 3c 3f 18 c8 3a dc b6 10 3d 59 af d8 3c
       0.031161437 0.0015266015 0.03533064 0.0264508
0000e0 da 73 05 bc 01 56 62 bd b9 30 0c 3d 0b c0 19 bd
       -0.008145297 -0.0552578 0.034226153 -0.037536662
0000f0 4f ed 15 bd a8 b7 66 3d 9c 3d 53 3c e1 64 08 bd
       -0.03660327 0.056327492 0.012893107 -0.03329933
000100 bb 3a c0 bc 39 45 da b9 29 8c 06 bc d3 64 a8 bb
       -0.023465505 -0.00041631775 -0.008212128 -0.0051389723
000110 c4 73 e0 bc cb e8 65 bc 55 ec 33 bd 12 0d 30 3d
       -0.027398951 -0.014032553 -0.043926556 0.042981215
000120 ec c5 53 ba 15 be 36 3c 65 e9 38 3d 73 39 ee 3b
       -0.0008078504 0.0111537175 0.045144457 0.007270032
000130 18 8e 36 bc f3 16 ea 3c 41 a7 b5 3b 1c 7f ef 3b
       -0.011142276 0.028575396 0.00554362 0.007308854
000140 04 1f 2b bb 2a 4d 66 3c 33 84 08 bd 91 9b 94 3c
       -0.0026111016 0.014056483 -0.0333292 0.018140586
000150 ff 7e 79 3a 76 cf 25 3c 12 cd 99 3c 77 d3 2c 3d
       0.000951752 0.010120263 0.018774543 0.042193856
000160 4d 7a 38 3d 06 90 4a 3c c9 23 05 3c 83 58 9c 3c
       0.04503851 0.012363439 0.008126208 0.019085174
000170 0f 7a 25 bd 0d 26 90 3b 08 67 fe 3c 2b 56 47 3c
       -0.040399607 0.0043990673 0.031054989 0.01216654
000180 ae 57 b6 bc 70 5b bc bb 9c 47 81 bc 01 b6 96 3c
       -0.022258606 -0.005748205 -0.015781216 0.018397333
000190 fa 01 61 bd 8d 58 9b 3a d4 e1 cb bc 0c 10 28 3d
       -0.054933526 0.0011851952 -0.024887957 0.04103093
0001a0 5e e6 a3 bc d7 ff bf 3c e2 e3 cd 3c 29 69 32 3d
       -0.020007309 0.023437424 0.025133077 0.04355732
0001b0 7c b6 c2 ba 89 53 3d 3d d2 99 30 3d 66 2d 13 3d
       -0.001485541 0.046222243 0.043115444 0.035931967
0001c0 84 fa 80 3c e0 53 9e 3c 6f e2 2c bc 12 8b 14 bc
       0.015744455 0.019327104 -0.010552033 -0.00906636
0001d0 a7 0e 57 bc 8d aa 18 3d fd f0 ae bc 5b bd 8d 3c
       -0.013126052 0.037272025 -0.021355147 0.017302206
0001e0 11 ec b2 39 38 17 0f 3d 87 34 00 bc 1f 3a 50 bd
       0.0003412669 0.034934253 -0.0078250235 -0.05083668
0001f0 d3 16 98 3d 66 1b 10 3c ec 16 96 3c 3f a7 56 bb
       0.074262284 0.008795595 0.018321477 -0.0032753495

feature_layer.3.weight f4 [128, 128]
000000 1b ac 21 3d 3a 45 a7 bb 87 9d 91 3d 58 2c ba bc
       0.039470773 -0.005104688 0.07110124 -0.022726223
000010 ed dc c3 3d 7a 6e 53 3d 63 80 cf bb 62 60 dd 3c
       0.095636226 0.05161903 -0.0063324436 0.027023498
000020 89 6c 85 3d 7e 18 e4 bc b6 f8 82 3c 59 58 60 3d
       0.06514842 -0.02784371 0.015987735 0.054771755
000030 01 08 11 3c 62 fa b3 3d ae b4 9c bb a2 f3 52 3c
       0.008852006 0.08787991 -0.004782281 0.012875469
000040 87 4c 19 bd 86 63 a1 3b 42 fe 6a bd 9c 47 79 3c
       -0.037426498 0.004925194 -0.057371385 0.015214827
000050 3d 4d 93 3d 76 a8 ee bc 5b 56 54 3d 42 86 2e bd
       0.071924664 -0.029133063 0.051840167 -0.042608507
000060 33 95 d8 3b c1 75 64 3d c5 f8 af bd 2a 78 24 bd
       0.006609583 0.05577636 -0.08592371 -0.04015366
000070 93 21 83 3d 2e bc 94 3c b1 b8 9f 3d f1 07 70 bd
       0.06402888 0.018156137 0.07798899 -0.058601324
000080 d3 e5 91 bd 34 e6 89 3d 76 68 86 3d 57 81 76 3d
       -0.071239136 0.06733361 0.06562893 0.06018194
000090 72 23 3d 3d be b5 38 3c d6 66 89 3b f9 b1 30 bd
       0.04617638 0.011273799 0.004193167 -0.043138478
0000a0 db f2 2b ba 39 83 9c bd 09 95 74 bd bc c2 60 3d
       -0.00065593206 -0.07642216 -0.059712444 0.054873213
0000b0 2a c7 24 3e de c5 2a 3d f4 ad 83 3d 0e 46 5b 3d
       0.160916 0.041692607 0.06429663 0.053533606
0000c0 d1 77 9f bd e2 f6 91 3d 07 5d 7d 3d 13 fe 49 bd
       -0.07786525 0.07127167 0.061856296 -0.04931457
0000d0 92 0c 64 bd 6b e0 df 3b 2c f9 93 bd e9 8b 8b bd
       -0.05567605 0.0068321726 -0.0722526 -0.06813795
0000e0 d6 ec 2b bd 49 d6 f4 bc 98 21 bf 3c 58 db 81 3d
       -0.04197391 -0.029887335 0.023331448 0.063406646
0000f0 1f 39 90 bc 37 d1 46 3c 2d 52 bb 3c 77 cb 5f bd
       -0.017605362 0.012134842 0.022866333 -0.0546374
000100 a7 63 d8 bc 15 7c f0 bc eb e4 cc 3b af a7 40 3d
       -0.026414705 -0.029356042 0.006252875 0.047034916
000110 18 76 ad bb 5b a5 39 bd 67 b0 0c bd 15 db 6c 3d
       -0.005293619 -0.04532371 -0.034347918 0.05782612
000120 f3 00 29 bc 27 6c 1c 3b 8d 05 b3 bd c4 db 4e 3d
       -0.010315168 0.0023868175 -0.08741293 0.050502554
000130 c8 4d 4c 3d ae 91 72 bd 00 3b 8a bd 86 bd 27 bd
       0.049878865 -0.059220962 -0.067495346 -0.040952228
000140 13 ca bd bc a2 7d 5c bd 91 3d 50 bd 05 b0 ac bc
       -0.023167646 -0.05383075 -0.050839964 -0.021080026
000150 fe ef a4 bc 1f 05 48 3b aa df 44 bd a9 01 84 3d
       -0.020133968 0.003052063 -0.048064865 0.06445629
000160 5f 51 14 3d cc 90 ab bd 89 4e 9c 3d d0 1e 0f 3d
       0.036210414 -0.08377227 0.07632167 0.034941494
000170 cd dd 9c bd d7 64 80 bd 5a 0b 00 bd dd f4 54 3d
       -0.07659493 -0.06269234 -0.031260826 0.051991332
000180 7c 13 09 3d 72 05 10 3d 1e 65 d8 bd cc 5e 22 3d
       0.033465847 0.035161443 -0.105661616 0.039641187
000190 4e 9d ab bc a9 3c 5c 3d 4f c1 26 3d 53 74 5a bd
       -0.020949032 0.053768788 0.040711697 -0.05333359
0001a0 ca 54 09 bc 28 c9 b1 bd ea 3f 84 3c 73 66 6c 3c
       -0.008382032 -0.08680946 0.016143758 0.014428723
0001b0 46 69 44 bd a9 e8 80 3d 4f e2 9d bc 7e f6 36 3d
       -0.04795196 0.062943764 -0.019272951 0.044668667
0001c0 10 59 de bc 6f b2 e3 3c 43 2e e4 bc 19 ab eb 3c
       -0.027142078 0.027795045 -0.02785409 0.02876811
0001d0 e8 92 18 bd cb cf 37 3d a7 6e 82 bd 42 bb 40 3d
       -0.037249476 0.0448759 -0.063687615 0.047053583
0001e0 80 2d 7e bd c8 41 50 3d 89 83 04 be 60 73 a8 3d
       -0.06205511 0.050843984 -0.12940802 0.08225131
0001f0 b2 df a5 bc 83 e1 bd bd a7 ee 8d bd 78 bf 3b bd
       -0.020248268 -0.092715286 -0.06930285 -0.045836896
000200 79 4e ba 3c 99 68 0c bd fb c8 b5 bd 63 68 ea bd
       0.022742497 -0.03427944 -0.088762246 -0.114456914
000210 ef 72 2f bd 2d 10 5d bd 45 d8 75 3d 5d 5e a3 3d
       -0.04283422 -0.053970505 0.060020704 0.07976983
000220 12 60 c3 3c e6 c3 d9 bd bf 0f cd bd 61 5c e9 3d
       0.02384952 -0.10633068 -0.10012769 0.11394573
000230 58 31 59 3d 60 6a 93 bd 76 99 0f bc a0 c2 84 bb
       0.053025573 -0.07198024 -0.008764615 -0.0040515214
000240 84 1f 0e bc 8d d5 67 3b 90 6a 02 3d 1c 52 b9 bd
       -0.008674506 0.003537509 0.031839907 -0.09048864
000250 6e bf a3 3d 43 fc 9f 3d ed 0b ba 3d 85 bb b2 3d
       0.07995497 0.07811787 0.09084306 0.08727173
000260 c0 54 d9 3d f6 39 3c 3c fa 41 fa 3d af bf e7 bc
       0.10611868 0.011488428 0.12219615 -0.028289644
000270 35 b4 6a bd ea 6c 1b 3d 36 1d 83 bc 57 58 3d bd
       -0.057300765 0.037945665 -0.01600514 -0.046226826
000280 fe f2 31 bd 23 f1 10 3d b3 14 bf bd ec 18 2e bd
       -0.043444626 0.035386216 -0.0933012 -0.042504236
000290 f3 cd a1 ba c8 dd 1d 3c 87 e8 c7 3c 27 8e 45 bd
       -0.0012344703 0.009635396 0.02440287 -0.04823127
0002a0 5a 28 a6 bd 16 59 e2 3d f8 4e da bd 25 7c 7c 3d
       -0.08113165 0.11052148 -0.10659593 0.06164183
0002b0 d4 e4 d1 3c 1a c8 99 bb ec 80 c7 3d d5 9b 1e 3c
       0.025621809 -0.0046930434 0.09741387 0.009680708
0002c0 62 96 ad 3d 85 b2 d7 3d de e9 7b 3d f9 dd 1c 3d
       0.08475949 0.10532097 0.06150233 0.038297627
0002d0 52 9d 81 bc ed 1d 05 bc 6b e8 17 be 1c 02 cd 3c
       -0.015822086 -0.008124811 -0.14834754 0.02502542
0002e0 8f 3a 06 be ae 44 8d 3d 15 d7 ab bd 23 6f 6b 3d
       -0.13108276 0.06897865 -0.08390633 0.057479035
0002f0 16 32 27 3d a3 3a 18 bd 7f 38 fb 3b 59 0a 12 bd
       0.04081925 -0.037165295 0.007666647 -0.0356544
000300 75 19 38 38 cc 5d 6e 3d c8 58 f5 3d 48 b2 ae bb
       4.3892727e-05 0.05819492 0.11979824 -0.0053313114
000310 9e 25 b7 3d 77 ef a7 3c 25 3d dd bc d3 49 c4 3d
       0.08942722 0.020499928 -0.027006695 0.09584393
000320 1d 2d 22 3d 49 96 8e bd 23 0d 6d bc 76 c6 0e bd
       0.039593805 -0.06962258 -0.014468464 -0.034857236
000330 56 c5 9f bc ad b2 46 3d 89 82 96 3d 10 2f 10 bd
       -0.019503277 0.048510242 0.07349116 -0.035201132
000340 d9 e1 ef 3c 2a 73 4f 3c ee 40 be 3c c0 80 da 3b
       0.029282497 0.012661735 0.02322432 0.00666818
000350 9b bd b9 3d 38 0b 46 bd c9 bf 7c 3d fc f2 ab 3a
       0.090693675 -0.048350543 0.061706338 0.001311868
000360 12 b2 4a bc ed 5c 16 bd 33 9c 87 3d 0d 54 9c 3d
       -0.012371557 -0.036709715 0.066215895 0.07633219
000370 77 74 9f 3d 0b b6 4c bd 02 81 b9 bc 91 15 54 3d
       0.07785886 -0.049978297 -0.022644524 0.05177838
000380 9b bb db ba bf fd 92 bd 51 88 29 3d 1b 2f a4 bc
       -0.0016764285 -0.071773045 0.041389767 -0.020041993
000390 ba d0 19 bd 24 59 ed 3d c8 93 0d bd 37 52 49 3c
       -0.037552573 0.11589268 -0.034564763 0.012287668
0003a0 38 eb e7 3c 3a 4b bb bb f7 be a3 3c dd 8a 52 3d
       0.028310403 -0.005715755 0.01998852 0.05140196
0003b0 3e 62 f2 bd 07 e8 b3 bd 9a a4 55 3d d4 6f 33 bb
       -0.118351445 -0.0878449 0.05215893 -0.0027379887
0003c0 c2 d4 83 3c a8 fd d9 3d a0 1e 6f 3c 43 ef 9d 3d
       0.016092662 0.10644084 0.014594704 0.07711651
0003d0 76 eb da bc 45 bf b0 bd ad 1c 2e bd 66 39 9c 3d
       -0.026723605 -0.08630232 -0.042507816 0.076281354
0003e0 fb a5 75 bd 17 ff 3d 3d f0 8e 72 bd 28 58 16 3c
       -0.059972744 0.04638585 -0.059218347 0.0091762915
0003f0 14 a3 f0 bc 99 0c a5 3d 6a df 21 bd 71 6e 53 bd
       -0.029374637 0.080590434 -0.039519705 -0.051618997

feature_layer.3.bias f4 [128]
000000 95 55 8a bd ae 5a d9 bd ab 2c 8a 3d f4 b5 f0 3b
       -0.06754605 -0.10612999 0.06746801 0.0073459093
000010 e1 27 43 bd 9b ca 62 bd cb af 39 3b 4f 2a 27 bd
       -0.047645453 -0.055369 0.002833354 -0.040811833
000020 49 fc 84 3c c4 48 d3 3c 52 91 8f 3c cd 95 6d bd
       0.01623358 0.025791533 0.017525349 -0.05800419
000030 c1 ab 7a bd e8 30 06 bb af 63 43 bc bd 87 c4 bc
       -0.061198954 -0.0020475928 -0.011925622 -0.023990506
000040 e0 f2 03 be e2 04 b9 bd 9f 0b 76 3d 1f 82 96 bd
       -0.12885618 -0.090341344 0.060069676 -0.073490374
000050 17 86 a3 3d 55 36 a8 3d 2f 75 25 3d 89 ee e1 bd
       0.0798456 0.08213488 0.040394958 -0.11031825
000060 14 08 9a 3d ea 0d ff bc 7b e6 9a 3d 8a ad b7 3d
       0.07521072 -0.031134564 0.07563492 0.08968647
000070 9c de 8e 3d e2 aa ae 3c 57 c4 2e 3d e2 1b c6 3c
       0.06976053 0.021321718 0.042667713 0.024183217
000080 b1 c6 5f 3d 8d 87 f8 3c ec 95 22 3d a8 4b 59 bd
       0.054632846 0.030338073 0.039693758 -0.053050667
000090 ec 39 89 3c bd e3 ab bd 44 02 a0 bd 64 60 ca bd
       0.016751252 -0.08393047 -0.07812932 -0.09881666
0000a0 a6 af 99 3c eb b0 02 3d c8 e3 39 3c 04 cc 11 3d
       0.018760514 0.031907003 0.011345811 0.035594955
0000b0 5c 9c 53 bd 0d 5a 9e bd 45 24 9a 3c 59 ec e1 bd
       -0.051662788 -0.077320196 0.018816123 -0.11031408
0000c0 7b 74 17 bd a2 a3 dd bd 2f 1e 9f 3d d5 26 6b 3d
       -0.03697632 -0.10822226 0.07769429 0.05741008
0000d0 22 3a 94 bc f6 5e 6b 3c 51 d8 7f bd cd 05 8c 3d
       -0.018094126 0.014365902 -0.062462155 0.06837044
0000e0 ed 24 fd 3c f0 dc 3c bd 89 62 ee 3b 24 47 80 bd
       0.030901397 -0.04610914 0.00727493 -0.06263569
0000f0 b3 c2 47 bd 07 a1 fc bd 94 0f ae bc f7 7f 9b 3d
       -0.048769664 -0.12335401 -0.021247663 0.07592767
000100 2e ba 96 3c b8 23 2c bb 8d 4e e8 3b 06 60 be bd
       0.018399324 -0.0026266407 0.007089442 -0.09295659
000110 3d dc 8d 3c 53 46 26 ba 2c 9e 49 3d 7e 8f 8a 3d
       0.017316932 -0.00063428766 0.04922311 0.0676565
000120 a4 cc 45 3d 26 01 3a bd ee d0 b6 bd bb fb a3 bb
       0.048290864 -0.04541125 -0.08926569 -0.005004374
000130 49 cc 6d bd a5 c8 3d bd 5d 22 28 bd 09 41 71 bd
       -0.05805615 -0.046333928 -0.041048396 -0.058899913
000140 20 24 e2 bd 51 5f 08 3d 46 bf 72 bd da 09 5d 3d
       -0.110420465 0.033294026 -0.059264444 0.053964473
000150 41 1b f4 bd 99 41 46 3d 8d d4 3d 3c e0 6d c8 bd
       -0.11919261 0.048402403 0.011586321 -0.09786582
000160 a9 df b3 bd 74 9c 12 bd 17 50 14 bd c6 b0 a8 3d
       -0.08782894 -0.035793737 -0.036209192 0.08236842
000170 65 2e 12 be 9b 54 0e be a1 9d c0 bd 62 76 b2 bc
       -0.1427551 -0.13899462 -0.09405065 -0.021784965
000180 cc 7f ab bc 01 44 3c bd 66 7d fb bd 21 e6 4d bc
       -0.020934962 -0.04596329 -0.12279777 -0.012567074
000190 b3 b3 7a bd 1a e0 2b ba 06 f5 9f 3d 0a f3 8a bd
       -0.06120653 -0.0006556526 0.078104064 -0.06784637
0001a0 18 8a ec bc 71 b2 b2 bb c8 41 d5 3d 42 02 84 bd
       -0.028874442 -0.005453401 0.104129374 -0.06445743
0001b0 e4 ae f2 bc 15 97 9d 3d 4b cf ed bc 62 84 4b bc
       -0.02962441 0.07694832 -0.029029509 -0.012421699
0001c0 a1 45 08 bd ab 20 b7 bd 11 de 71 bd cc a0 8f bd
       -0.03326953 -0.08941778 -0.05904967 -0.070130914
0001d0 35 76 8e bd db f7 28 bd 06 12 d8 3d 4f 96 6a bc
       -0.0695614 -0.041252 0.10550313 -0.014318063
0001e0 40 75 e9 bd b0 a2 82 bc 68 75 9e 3b 80 c3 f7 3c
       -0.11399317 -0.015946716 0.0048357733 0.030244589
0001f0 f9 ff 97 bd 94 8c 00 3d 7b 72 10 be fa c5 d8 3d
       -0.0742187 0.031384066 -0.14106171 0.10584636

feature_layer.5.weight f4 [128]
000000 b9 72 85 3f 84 1b 8f 3f ef b1 92 3f 5a 30 8b 3f
       1.0425636 1.1180272 1.1460551 1.0874131
000010 bb fe 8e 3f ec 05 8e 3f c0 43 8f 3f c7 fb 91 3f
       1.1171488 1.1095557 1.1192551 1.1404961
000020 86 e4 8b 3f 3c 20 8d 3f 87 db 8a 3f a7 0c 8e 3f
       1.0929115 1.1025462 1.0848244 1.1097611
000030 c9 6d 8e 3f 03 eb 8c 3f bc 62 91 3f b3 32 8b 3f
       1.1127254 1.100922 1.1358256 1.0874847
000040 21 0e 8e 3f 7b 0a 8f 3f 10 b1 9e 3f 5b 3f 88 3f
       1.1098062 1.1175073 1.2397785 1.0644335
000050 d5 03 8d 3f 59 98 8e 3f 3e bd 8b 3f 18 e3 8c 3f
       1.1016794 1.1140243 1.0917127 1.1006804
000060 18 48 95 3f e2 ad 90 3f 99 ad 84 3f 92 9f 86 3f
       1.1662626 1.1303065 1.0365478 1.0517447
000070 82 6c 8a 3f 57 cc 91 3f 0a 06 8c 3f c2 da 92 3f
       1.0814364 1.1390485 1.0939343 1.147301
000080 ee 6f 8d 3f 24 ab 8b 3f e0 06 8e 3f 25 97 8c 3f
       1.1049783 1.0911603 1.1095848 1.0983626
000090 70 f5 8b 3f 26 29 90 3f 4e 64 8c 3f 9e 48 8d 3f
       1.0934277 1.1262558 1.096811 1.1037786
0000a0 19 6b 98 3f 61 21 8c 3f 59 2b 8b 3f 51 2e 8f 3f
       1.1907684 1.0947686 1.0872604 1.118601
0000b0 1a 00 8f 3f a8 bb 8d 3f 85 da 8d 3f 92 3c 8e 3f
       1.1171906 1.1072893 1.1082312 1.1112235
0000c0 ca 1c 8b 3f b3 c3 8c 3f 41 5f 8e 3f f3 40 8a 3f
       1.0868161 1.0997223 1.1122819 1.0801071
0000d0 89 3a 87 3f a8 9c 87 3f c3 6d 8d 3f e1 34 86 3f
       1.0564739 1.0594683 1.1049122 1.0484887
0000e0 82 f1 8f 3f a6 23 8a 3f dc de 8e 3f d9 2a 8a 3f
       1.1245577 1.0792129 1.1161761 1.0794326
0000f0 67 ac 8f 3f 20 10 8f 3f 39 3f 89 3f d7 5d 92 3f
       1.1224488 1.1176796 1.0722419 1.1434888
000100 b6 ef 8f 3f 6d b6 8d 3f d9 03 91 3f 79 51 8c 3f
       1.1245029 1.1071297 1.1329299 1.0962363
000110 15 36 8c 3f 78 41 85 3f fd ca 8b 3f 78 37 8c 3f
       1.0954005 1.0410604 1.0921322 1.0954428
000120 b2 71 92 3f 6f fb 80 3f 32 68 8c 3f 89 14 89 3f
       1.1440947 1.0076731 1.0969298 1.0709392
000130 2a 0b 8a 3f 18 23 8b 3f 88 6e 90 3f c6 ae 8f 3f
       1.0784657 1.0870085 1.1283731 1.1225212
000140 42 4e 8a 3f ee 97 8a 3f a4 62 87 3f 77 72 89 3f
       1.0805132 1.0827615 1.0576978 1.0738057
000150 1e 53 8e 3f ae 96 8a 3f ab 16 8d 3f d4 5a 8e 3f
       1.1119115 1.0827234 1.1022543 1.1121469
000160 3f d1 8a 3f ff 2b 8c 3f 56 14 89 3f fe 99 8b 3f
       1.0845107 1.0950927 1.0709331 1.090637
000170 93 39 90 3f e8 f4 8c 3f e4 8d 95 3f e7 5f 8b 3f
       1.126757 1.101224 1.1683927 1.0888642
000180 61 44 8c 3f f1 f4 8d 3f b8 fb 8c 3f 8a 7f 8c 3f
       1.0958368 1.1090375 1.1014318 1.0976422
000190 57 04 8d 3f ac 05 8e 3f ab 90 8d 3f 2b 92 8e 3f
       1.101695 1.1095481 1.1059774 1.1138357
0001a0 6f 7d 8c 3f 86 64 8d 3f 28 92 8f 3f 3a 2e 8b 3f
       1.0975779 1.1046302 1.1216478 1.0873482
0001b0 c0 ef 8c 3f be d5 8b 3f a9 2d 8a 3f 54 6a 8d 3f
       1.1010666 1.0924604 1.0795184 1.1048074
0001c0 ff e9 8d 3f 7a 1a 8b 3f c0 a7 8e 3f af 6c 8d 3f
       1.1087035 1.0867455 1.1144943 1.1048793
0001d0 fd 42 8e 3f e2 db 8b 3f c5 fd 93 3f 79 b2 8d 3f
       1.1114193 1.0926478 1.1561819 1.107009
0001e0 3f b9 8d 3f a2 02 91 3f e6 06 8d 3f 0e f7 8b 3f
       1.1072158 1.1328928 1.101773 1.093477
0001f0 ed 76 8c 3f ba a7 8a 3f 7a 90 8c 3f 00 85 8f 3f
       1.0973793 1.0832436 1.0981591 1.1212463

feature_layer.5.bias f4 [128]
000000 04 02 7a bd a6 6e f0 bd dd ed a2 3d 3c dc a6 bd
       -0.06103708 -0.117398545 0.07955525 -0.08147475
000010 eb da a1 bd 4b 91 9d 3d 30 1b c5 bd bd 4f d3 bd
       -0.079030834 0.07693728 -0.09624326 -0.10317943
000020 c5 ee c3 bd 41 9d 99 bd 56 e4 bd bd aa 89 b1 3d
       -0.09567026 -0.07500697 -0.09272067 0.086688355
000030 fe 48 aa bd 07 62 b0 3d b9 8f 0d 3e ce bf 92 bd
       -0.083147034 0.08612447 0.13824357 -0.0716549
000040 fe 2c df bd 3c 81 ec bd ec 0b b9 3d 95 04 30 3d
       -0.108972535 -0.11548087 0.09035477 0.04297312
000050 ec d5 b7 3d 27 08 bc 3d e4 58 d7 3d fc 54 cd bd
       0.08976349 0.091812424 0.105150014 -0.10025975
000060 6a 15 ce 3d 21 5d c8 bd fa d2 82 bc ab 7d a9 3d
       0.10062678 -0.09783388 -0.015969742 0.082759224
000070 48 36 88 3d 16 26 b8 3d 62 b4 84 bd 41 0e b6 3d
       0.06650978 0.08991639 -0.06479718 0.088894375
000080 a6 61 e2 bd b5 4b dd bd 76 e5 9d bd 74 8f 83 bd
       -0.11053781 -0.108054556 -0.07709782 -0.06423846
000090 1e b1 ca bd e3 6e 08 be 73 70 96 bd 2b 15 92 bd
       -0.09897064 -0.1332355 -0.07345667 -0.07132944
0000a0 86 d6 9d 3d 7b df df 3d e7 ea c7 bd ad e4 f4 bd
       0.07706933 0.109312974 -0.09761601 -0.11957679
0000b0 d2 f1 ec bd 0a e1 ba bd 4c 9c d7 bd dd 50 f3 bd
       -0.11569561 -0.09124954 -0.10527858 -0.11880658
0000c0 eb 9b a3 bd 4f 7d 81 bd 0e 3f a3 3d 1c 26 af bd
       -0.07988723 -0.06322729 0.07971011 -0.08552191
0000d0 75 ed c8 3d 33 59 80 3d 54 32 03 3e 3b 51 a5 bd
       0.09810916 0.062670134 0.12812167 -0.08072134
0000e0 d9 bb ae 3d cf 75 aa 3b f7 22 f3 bd 06 d4 b0 bd
       0.08531923 0.005202032 -0.118719034 -0.0863419
0000f0 44 1f c8 3d c8 16 f3 bd 3e 3a 6f bd 81 1c a9 3d
       0.097715884 -0.118695796 -0.058405153 0.0825739
000100 ac 90 f1 bd 1b 96 ad 3d a0 a9 f3 3d 94 e9 93 bd
       -0.11795172 0.08475896 0.11897588 -0.07222286
000110 d6 e9 b8 bd d2 3b 23 bd ba 7f 9a 3d 22 c6 ab 3d
       -0.09028976 -0.03985197 0.07543893 0.083874
000120 7f 9b f5 3d 4f e7 02 3d ec 0a a5 bd ca e2 96 bd
       0.11992549 0.031958874 -0.08058724 -0.07367475
000130 f5 d6 97 bd 63 62 a2 3d c9 3c 0a 3e 34 36 f6 3d
       -0.07414047 0.07928922 0.1349975 0.12022057
000140 9b 85 aa bd 45 e1 cc 3d e1 9a 90 3d af 5a 87 bd
       -0.083262645 0.10003904 0.07060791 -0.066090934
000150 db 53 9f bd d5 a9 de 3d ad f8 a1 bd 4f c3 ae bd
       -0.07779666 0.10872237 -0.07908759 -0.08533346
000160 63 83 b6 bd b9 32 a1 bd 07 6a a8 bd 3a 6e c3 3d
       -0.08911779 -0.07871003 -0.08223348 0.095425084
000170 5e c0 fe bd 69 a1 cf bd 9e 35 ea bd 6a f3 d8 bd
       -0.12439035 -0.101382084 -0.11436008 -0.105933025
000180 bb 55 a8 bd ad 24 a1 bd 2d 72 ab bd 13 8e 94 bd
       -0.08219477 -0.078683235 -0.08371387 -0.07253661
000190 47 c2 ae bd 22 dc 9c 3d d5 2c eb 3d 4b 7d b7 3d
       -0.08533149 0.076591745 0.114831604 0.089594446
0001a0 ed d2 d4 3d c3 b5 a7 bd 33 b4 c6 3d 1d f2 9b bd
       0.103917934 -0.08188965 0.09702339 -0.07614539
0001b0 7b d2 9d bd e3 d6 a1 3d 41 ea ba bd 43 5a 97 bd
       -0.077061616 0.079023145 -0.09126712 -0.07390263
0001c0 22 63 95 bd 65 d2 b3 bd a4 cf a6 bd d2 44 bc bd
       -0.07294299 -0.08780364 -0.08145073 -0.09192814
0001d0 68 c9 c2 bd 59 2d c9 bd 54 8e d0 3d 93 92 a6 bd
       -0.095110714 -0.098231025 0.10183397 -0.081334256
0001e0 ad b7 97 bd 9b f5 04 3e 2c bb d8 bd b0 94 a7 3d
       -0.0740808 0.12984316 -0.10582575 0.08182657
0001f0 30 bc 03 3e 0c cf 87 bd 7e 77 9a bd 62 bf ac 3d
       0.12864757 -0.06631288 -0.075423226 0.08434941

value_stream.0.weight f4 [64, 128]
000000 bd 76 78 3c a8 19 2e be 52 7b 80 3d 3c d7 25 be
       0.015165028 -0.17001975 0.062735215 -0.16195387
000010 a0 2f 02 be 69 8f 05 3e 3c a2 f6 bd 10 9e 38 be
       -0.1271348 0.13042988 -0.120426625 -0.18029046
000020 29 37 2a be 15 70 f8 bd aa df 25 be d2 92 19 3e
       -0.16622604 -0.12130753 -0.16198602 0.14997414
000030 25 d3 25 be d3 7d 38 3e b7 7d 51 3e 2b 26 e0 bc
       -0.16193826 0.18016748 0.20458113 -0.02736195
000040 10 01 4b bd 7a 3d 9e bd c0 c7 1f 3e ec 84 20 3d
       -0.04956156 -0.077265695 0.15603542 0.039189264
000050 75 c0 c4 3d 40 bf ac 3d f1 fe e1 3d c1 99 73 bd
       0.09607021 0.084349155 0.11034954 -0.059472803
000060 4b 3c c8 3d 82 14 1b be ad 7b 98 bd 31 6a af bc
       0.09777125 -0.15144542 -0.07445464 -0.02141294
000070 b9 b3 32 3d 6a c8 d8 3d 6c 26 a7 bc 9e 19 3a 3d
       0.043628428 0.10585101 -0.020404063 0.045434587
000080 ee 88 02 be f6 63 23 bd 39 f3 d0 bc a0 44 46 be
       -0.12747547 -0.039890252 -0.025506603 -0.19362116
000090 96 3c f1 bd d4 6e 09 be 45 7a 5d bd 90 2b 61 bd
       -0.11779134 -0.13421184 -0.054071683 -0.054973185
0000a0 25 b1 04 3e 47 47 0b 3e 94 9a df bd 90 9c da bd
       0.129582 0.13601409 -0.10918155 -0.10674393
0000b0 57 f2 20 be e1 ae 7b bd fa a7 fd bd ac 43 ec bd
       -0.15717445 -0.061446074 -0.123855546 -0.11536345
0000c0 3c 99 b5 bc 47 b1 01 bd a4 9c eb 3d eb f7 e9 bd
       -0.022167794 -0.031663205 0.11504486 -0.1142424
0000d0 98 9e 9f 3d e4 2a 1f bc 68 90 36 3d 5c 60 ab bd
       0.07793921 -0.009714816 0.04457131 -0.083679885
0000e0 77 e2 1c 3e 9b f5 d0 3d ab 15 00 be e1 45 18 be
       0.15320764 0.102030955 -0.12508266 -0.14870407
0000f0 76 95 2a 3e 69 e5 2e be 95 cb ab bb 19 08 c4 3d
       0.16658577 -0.170797 -0.0052427747 0.09571857
000100 87 ee 1c be 15 ac 10 3e 39 d8 e7 3d c1 21 18 be
       -0.15325366 0.14128144 0.11320538 -0.14856626
000110 de 2a d9 bd 0f 68 ff 3a 19 61 98 3d b3 ae 02 3e
       -0.106038794 0.0019485968 0.07440395 0.12761955
000120 3b b3 0b 3e f0 29 c8 3d 3d da a8 bc 88 ae 1d be
       0.1364259 0.09773624 -0.020611877 -0.1539861
000130 18 3d e1 bd 0b e9 dd 3d 50 fe 1b 3e 2f bc bf 3d
       -0.10997981 0.10835465 0.15233731 0.09362065
000140 70 f9 e5 bd b7 b4 21 3e 49 54 08 3e c3 be 07 be
       -0.11229217 0.15791593 0.13313402 -0.13256364
000150 5d 75 28 be 41 62 24 3e 1d 62 18 bd 12 a8 3a be
       -0.1645102 0.16053106 -0.037202943 -0.18228176
000160 ad 3a 85 bd 82 c8 34 be 38 f7 13 be da d2 7a 3d
       -0.06505332 -0.17654613 -0.14449775 0.06123624
000170 d4 fc 32 bd 65 24 ca bd 3c 1e 23 be 47 67 df bd
       -0.043698147 -0.09870223 -0.15929502 -0.109083705
000180 3e 25 25 be 22 32 09 bd 12 4f 76 bd ad 8d 99 bd
       -0.16127488 -0.033495076 -0.060134 -0.07497726
000190 14 1c 38 be 23 29 ff 3d bf 6e d9 3d 81 17 0c 3e
       -0.17979461 0.12459018 0.10616826 0.13680841
0001a0 c8 24 28 3e 98 11 ee bd 14 ac 8a 3d db 99 d0 bd
       0.16420281 -0.116244495 0.067711025 -0.101855956
0001b0 08 b3 07 be 4f fa 19 3d da 02 18 be 54 e2 17 be
       -0.13251889 0.03759223 -0.14844838 -0.14832431
0001c0 35 60 d8 bc 30 9f 44 bd 59 7e 8f bd 1b a5 1e be
       -0.026413063 -0.048003376 -0.07006521 -0.1549267
0001d0 f6 5c ff bb cc ae 0d be 21 e0 3e 3e d9 66 1a be
       -0.007793064 -0.13836211 0.18640186 -0.15078296
0001e0 a2 1e 33 be 83 42 ab 3d 41 2b a2 bd 58 fa ae 3b
       -0.17492154 0.083622955 -0.07918406 0.005339902
0001f0 2a 6b a5 3d 4b 00 f9 bd 80 bc 15 be ad 89 d9 3d
       0.080770805 -0.12158259 -0.14622688 0.10621963
000200 9f 9d a3 3d 58 7c 2c 3d 25 fb e6 bd 63 68 03 3e
       0.07989048 0.04211077 -0.11278371 0.12832789
000210 4c c9 24 3d 11 06 2d be 93 09 1b 3e 6d 61 e5 3d
       0.040231034 -0.16896845 0.15140371 0.11200223
000220 9e 4b a2 3d 3f 25 89 3d 4e 49 9c 3c 32 35 53 bd
       0.07924579 0.06696557 0.019077923 -0.051564403
000230 7a 94 69 bb 87 9c b8 bd ac 5b ec bd 6c 97 21 3e
       -0.0035641477 -0.0901423 -0.115409225 0.15780419
000240 57 87 00 3e 23 5d dd 3c 12 7c 3e be 7e 9a c0 bd
       0.12551628 0.02702195 -0.18602017 -0.09404467
000250 3b 56 f1 3a f8 1e 05 bd 6f 74 7e bd 04 f7 20 3c
       0.001841254 -0.032500237 -0.06212276 0.009824518
000260 4f 80 e6 bc e7 b7 4c 3d 53 91 d9 3c 5f 45 a7 bd
       -0.028137354 0.04998007 0.026558554 -0.08167528
000270 48 32 78 bd 06 61 0b bc a3 a1 dd 3d e9 a9 f1 bb
       -0.060594827 -0.008507019 0.108218454 -0.007374991
000280 df 67 87 3d ce 3d 11 3e 20 50 36 3c ae 96 08 3e
       0.06611609 0.14183733 0.011127502 0.1333873
000290 42 8b b9 3d 51 35 ae bb 1a 70 32 3e 04 52 2f 3e
       0.090597644 -0.0053164144 0.17425576 0.1712113
0002a0 14 48 85 be 40 18 45 bc db fb de 3d 2e d4 82 3d
       -0.26031554 -0.012029707 0.10887881 0.06388126
0002b0 91 bd 48 bc 2a 9e fb 3d 20 80 29 3d 67 cb 19 3d
       -0.012252227 0.12286027 0.041381955 0.037547495
0002c0 53 6e 46 3d df a1 13 3e 5b a9 14 be dd d7 e2 3b
       0.048445057 0.14417218 -0.14517729 0.0069227056
0002d0 66 38 cc bd 4b 49 10 be 9b 09 d2 3c d0 aa 5e 3d
       -0.09971695 -0.14090459 0.025639346 0.05436212
0002e0 60 c9 4f bc a3 55 b0 bd 4b ce e9 3d 95 03 0a 3e
       -0.012682289 -0.08610084 0.114163004 0.13477929
0002f0 0c 88 14 be 64 60 ca 3d f2 c4 0f 3e e0 b4 7c bc
       -0.14505023 0.09881666 0.14039972 -0.015423983
000300 5e e5 f2 3d 0b 43 08 be 14 e2 0d bd 7c 59 8b 3d
       0.118601546 -0.13306825 -0.034639433 0.06804177
000310 31 1f f3 3d 11 7e 8a 38 46 28 28 be 43 f6 2f bc
       0.11871184 6.6038345e-05 -0.16421613 -0.010739866
000320 81 ce 16 be 38 21 12 bd 14 a8 1b 3e ab 1f d2 3d
       -0.14727212 -0.03567621 0.15200835 0.102599464
000330 1d 34 d1 3d 72 5a 77 bd 43 45 e9 bc b1 3c a0 bd
       0.10215018 -0.06038899 -0.02847541 -0.07824076
000340 cc 12 98 3d 2e 48 17 be 1c 35 db bd 69 c3 3e 3d
       0.0742546 -0.14773628 -0.10703489 0.046573076
000350 db 67 16 3e 41 1e 9b bd 47 57 d8 bb 56 20 e0 3d
       0.14688055 -0.0757413 -0.006602201 0.109436676
000360 7b 3d 07 3e 13 43 a0 3d bf a1 bb 3c 58 3c 01 bd
       0.13207047 0.078252934 0.022904275 -0.03155169
000370 fa 67 cd 3d 4d 2b c8 ba e9 0a 39 3d 68 aa 35 3d
       0.100295976 -0.0015271694 0.04517642 0.044351965
000380 6c 3c 03 3e c5 ed c0 3d a0 5c e3 3d 33 2d 0b 3d
       0.12816018 0.09420351 0.11101651 0.033978652
000390 4a 2f 22 3e d1 b0 0f be fe d2 04 be ce 61 5f bd
       0.15838352 -0.14032294 -0.12971112 -0.054536633
0003a0 6e de 17 be 61 d3 31 3d f2 bd bf bd a9 a9 0b bc
       -0.14830944 0.043414477 -0.09362401 -0.008524337
0003b0 98 d6 a1 3d da e0 86 bd ab 4e 60 3d d2 e4 26 3e
       0.07902259 -0.06585856 0.054762524 0.16298226
0003c0 2f 17 51 3a 4b c7 49 3d 73 b9 11 3e 42 5e 2e 3d
       0.0007976172 0.049262326 0.142309 0.04257036
0003d0 3d 41 05 3d 2a 4c 3e bc d7 41 db bd 17 e8 12 3e
       0.03253292 -0.011614839 -0.10705917 0.14346348
0003e0 98 18 16 3d ca f9 09 be b1 8d 8d 3d cd f6 eb bb
       0.03664455 -0.13474193 0.06911791 -0.007201052
0003f0 45 4b ad bd 7b 3d 1f 3d 0e fd e0 3d 26 86 e3 bc
       -0.08461622 0.03887699 0.10985766 -0.027773928

value_stream.0.bias f4 [64]
000000 ad a3 c6 3d 20 2c e1 bd 97 32 ab 3c 3a ab ed bd
       0.096991874 -0.10994744 0.020898147 -0.116049245
000010 f2 1e 81 bd 71 ee 1e 3d f9 8a b1 bd 52 94 9d 3d
       -0.063047305 0.038801614 -0.08669085 0.076943055
000020 66 a5 55 3c cc 79 fe bd 13 14 35 3e 30 fb 0d be
       0.013039922 -0.12425575 0.17683439 -0.13865352
000030 17 3a a3 bd 54 2b f6 3d e3 40 8c bd 61 57 fc bb
       -0.07970064 0.12019983 -0.06848314 -0.007700846
000040 8a 59 b4 bd ea d1 34 3e da 4c ff bd e0 96 95 bd
       -0.08806141 0.17658201 -0.1246583 -0.07304168
000050 5c 3e f6 3d ef 95 f2 3d 55 66 b6 bd 9c b6 35 3d
       0.12023613 0.11845004 -0.08906237 0.044363603
000060 c5 d0 c2 bc 87 62 1d 3e 3c 90 37 3e ab 1c a2 bd
       -0.02378119 0.15369616 0.17926115 -0.07915624
000070 91 29 02 be 59 56 9b bd 83 14 17 3e 58 ba f3 bd
       -0.12711169 -0.07584829 0.14753918 -0.119007766
000080 0d 76 29 bd 94 31 eb 3d ff 76 f0 bd 9e 9c c8 bd
       -0.041372348 0.11484066 -0.11741447 -0.09795497
000090 c2 fc fb 3d ed f5 07 be 0f 47 17 3e 11 ad 84 bd
       0.12304069 -0.13277407 0.147732 -0.06478322
0000a0 a0 0d 95 bd c3 90 3a 3d 7f 7d 18 3d 24 78 64 3d
       -0.072779894 0.04554821 0.037229057 0.055778638
0000b0 f6 ed e0 3d ec ba af bd a1 d9 1b 3d 17 2d f3 bd
       0.109828874 -0.085805744 0.038049344 -0.118738346
0000c0 85 d0 49 3d 1d ce c4 bc 8e 86 14 3e c9 cd 08 be
       0.049271125 -0.024024064 0.14504454 -0.13359751
0000d0 25 08 c7 bd 31 ed 14 be f7 d3 f5 bd 62 7c bf bd
       -0.0971835 -0.14543606 -0.1200332 -0.09349896
0000e0 06 c7 a8 bd 32 27 05 3e 04 cf 0e be da 22 bd 3d
       -0.08241086 0.13003233 -0.13946158 0.09235163
0000f0 1c 21 99 3d e5 94 63 3d eb bc ad bb 06 fa b7 bc
       0.07477018 0.05556192 -0.005302062 -0.022458088

value_stream.2.weight f4 [1, 64]
000000 88 43 54 3e 45 4d 01 be 81 72 d9 bd 43 09 00 be
       0.20728886 -0.12627132 -0.10617543 -0.12503533
000010 0d 30 1f be 04 60 20 3e f2 d5 3a be 8b 23 2e 3e
       -0.15545674 0.15661627 -0.18245676 0.17005746
000020 b5 ca 50 be 4e 89 c9 bd a3 c2 0f 3e 63 65 3a be
       -0.20389827 -0.09840642 0.14039092 -0.18202738
000030 5b f5 19 be 42 55 f6 3d 98 3d fc bd ff b6 49 be
       -0.15035002 0.120279804 -0.123164356 -0.19698714
000040 95 4d fc bd bc 7a 5b 3e dd 9b c0 bd 9f 89 1c be
       -0.12319485 0.21433538 -0.094047286 -0.15286873
000050 9e 0b 78 3e b8 a6 34 3e 7a 4d e3 bd 69 00 4c 3e
       0.24223182 0.17641723 -0.11098762 0.19922031
000060 3d 71 cc bd b0 79 8c 3e a5 7a 35 3e 86 d3 40 be
       -0.09982536 0.2743659 0.17722566 -0.1883069
000070 65 2f 02 be 1b 81 f7 bd 06 88 17 3e cf fc 4b be
       -0.12713392 -0.12085172 0.14797983 -0.19920658
000080 42 12 27 be c4 14 82 3e 45 ef ce bd d4 e7 05 be
       -0.16315559 0.25406468 -0.10104231 -0.13076717
000090 93 48 44 3e eb b2 0b be d7 07 1e 3e 45 7c 0c be
       0.1916831 -0.1364247 0.15432678 -0.1371928
0000a0 45 ec e9 bd c5 1d 08 3e 65 34 84 3e 8e ab 5d 3e
       -0.11422018 0.13292606 0.25821224 0.21647474
0000b0 22 af 60 3e c6 75 13 be e2 d1 2c 3e d4 05 05 be
       0.21941808 -0.14400396 0.16876939 -0.12990505
0000c0 90 58 77 3e 7a f5 f2 bd 2f 5c 4f 3e ca 4f fa bd
       0.24154878 -0.11863227 0.20250009 -0.1222225
0000d0 59 41 c3 bd ea f7 2e be 40 bb 06 be 5e 68 c1 bd
       -0.095339485 -0.17086759 -0.13157368 -0.094437346
0000e0 be 5a e4 bd 66 63 76 3e b3 69 df bd 2f 96 2e 3e
       -0.1115012 0.24061355 -0.109088324 0.17049478
0000f0 68 b5 53 3e 5e 94 65 3e 9a 08 33 be 15 b1 e2 bd
       0.2067467 0.22419879 -0.1748375 -0.11068932
