models_DQN_pytorch/latest.pt (torch, 591698 bytes, 60 tensors)

feature_layer.0.weight f4 [128, 12]
0.03834783 -0.06710751 0.1744536 0.21925767 -0.19087617 0.06404377 0.3321038 -0.1715014
-0.2435163 -0.13108896 -0.27563107 0.4530245 -0.013997343 0.15859744 -0.049490076 -0.22353719
0.0704124 -0.20354588 -0.13315712 0.14959536 -0.25371134 0.09039409 0.16116075 -0.3901392
-0.12903264 -0.054224566 -0.20168976 0.2948692 -0.061889283 -0.0071072713 0.25311637 -0.03220283
-0.09971465 0.10282002 0.10802583 -0.7922937 -0.24058004 0.07132597 -0.0030017192 0.12288745
-0.026174909 -0.004118837 0.16372326 0.1745054 -0.26662263 0.23929696 -0.0821798 0.5274564
-0.24025813 0.25878295 0.08465387 0.16066325 0.06285539 0.0126878815 -0.31023613 -0.22522855
-0.10566874 -0.33973074 0.27570963 -0.4042477 0.14107278 -0.2280923 0.12892936 -0.058428526
0.05761516 -0.19961627 0.11553909 0.24123783 0.2580101 0.119594574 0.2936842 0.6105387
0.1830431 0.062156443 -0.1944818 -0.0908065 0.24860217 -0.19719283 0.19812395 0.07505162
-0.05370857 0.0031473655 -0.14014822 0.5059578 0.33272475 -0.10420792 -0.178005 -0.018098872
0.1470363 -0.2961214 -0.24853164 -0.03977306 0.19788128 -0.2672669 -0.26271453 -0.099867605
-0.23104246 0.12247997 -0.022005672 -0.13155909 0.25330457 -0.26493546 -0.057856005 0.057411935
0.15103585 -0.25496542 0.14706056 -0.47789672 0.19327636 -0.26187474 -0.059755366 0.14965995
0.026114952 0.05826767 0.06926582 0.09212227 0.26934147 0.2128693 -0.088249214 0.33147976
0.09603141 0.029553074 -0.10279302 0.19276562 -0.10368309 0.07470468 0.052921966 -0.034729835
0.109001905 0.3223116 -0.10459837 -0.8735335 0.18658549 0.27956074 -0.25224376 0.050660666
-0.15999472 -0.23530772 0.2997077 -0.20284846 0.23660082 -0.019048385 -0.20351961 -0.22953907
-0.14397475 0.16002114 0.055514757 -0.110670984 0.011168624 -0.19782811 -0.17327902 -0.1761752
0.17668188 -0.15359233 -0.5207626 0.09204595 -0.030495388 0.16804859 0.24089651 -0.28183812
-0.1483645 0.02113231 0.15193017 0.25773236 0.19456372 -0.31005934 0.4518561 -0.16833633
-0.34183577 -0.16824032 0.1622776 -0.18929791 0.13987708 0.057604965 0.32776624 0.25833955
-0.07764512 0.110017225 0.31545502 -0.23808691 0.17710102 -0.19266644 0.28324205 -0.03290797
-0.09749236 -0.07665537 0.32840228 -0.17859086 -0.15165843 -0.20893909 0.09952041 -0.32682854
0.2693935 0.0053315386 0.12556253 -0.23294568 -0.24413876 -0.046415422 -0.2106578 0.119495966
0.14870948 0.32034996 -0.3064817 -0.17458814 -0.09394002 0.19914292 -0.15458687 0.2725439
-0.17456709 -0.1501867 -0.22777633 -0.17833489 -0.2039429 0.17652112 -0.32394412 0.6933397
0.19960916 -0.19543324 0.0058090524 -0.034102567 0.16675629 -0.017917886 0.10754837 0.08781143
-0.26498467 0.009561939 -0.28031456 -0.40454093 -0.15265886 0.022359736 -0.23152384 0.114705466
0.14280362 -0.0545144 -0.31193653 0.06450449 -0.23371142 0.045134608 0.42435247 0.44383046
-0.0048442828 -0.1266203 -0.07455506 -0.15345545 -0.21569838 -0.18488383 0.30721843 0.08009722
0.12785292 -0.09155875 0.08040946 0.1543092 0.21644358 -0.22679314 -0.008325773 0.11317974
00000000: 9d12 1d3d aa6f 89bd f7a3 323e 1585 603e
00000010: 0b75 43be 6129 833d 8209 aa3e 109e 2fbe
00000020: 565c 79be 2f3c 06be 841f 8dbe d4f2 e73e
00000030: 1d55 65bc 5e67 223e 1bb6 4abd efe6 64be
00000040: 6034 903d 556e 50be 575a 08be 872f 193e
00000050: 74e6 81be 8920 b93d 5307 253e 53c0 c7be
00000060: 2221 04be 941a 5ebd c387 4ebe 19f9 963e
00000070: 9e7f 7dbd 1de4 e8bb 7898 813e 1de7 03bd
00000080: 3237 ccbd 4d93 d23d a53c dd3d c3d3 4abf
00000090: 9d5a 76be 5a13 923d 7eb8 44bb 6aac fb3d
000000a0: c36c d6bc 4ff7 86bb 12a7 273e 8bb1 323e
000000b0: c382 88be 430a 753e e24d a8bd 6207 073f
000000c0: 3a06 76be 337f 843e 025f ad3d e884 243e
000000d0: 54ba 803d d5e0 4f3c 45d7 9ebe 50a2 66be
000000e0: da68 d8bd 30f1 adbe d029 8d3e 8ef9 cebe
000000f0: 6275 103e 0791 69be 0f06 043e c052 6fbd
00000100: e0fd 6b3d 3568 4cbe c29f ec3d 0d07 773e
00000110: e619 843e 00ee f43d c75d 963e 444c 1c3f
00000120: a76f 3b3e c197 7e3d 3d26 47be c2f8 b9bd
00000130: 9191 7e3e ebec 49be 01e1 4a3e aab4 993d
00000140: 84fd 5bbd 0844 4e3b 0483 0fbe 7386 013f
00000150: e65a aa3e f66a d5bd f146 36be 1644 94bc
00000160: af90 163e 399d 97be 147f 7ebe 13e9 22bd
00000170: 64a1 4a3e 35d7 88be 8582 86be 6387 ccbd
00000180: 6596 6cbe c7d6 fa3d 3d45 b4bc 6db7 06be
00000190: 23b1 813e 9fa5 87be 6bfa 6cbd c728 6b3d
000001a0: 24a9 1a3e d48a 82be 0b97 163e e1ae f4be
000001b0: 3dea 453e 7214 86be 0bc2 74bd 7540 193e
000001c0: 06ef d53c 15aa 6e3d 3ddb 8d3d 9aaa bc3d
000001d0: 20e7 893e 69fa 593e 01bc b4bd b7b7 a93e
000001e0: 1eac c43d 4a19 f23c 2685 d2bd 5a64 453e
000001f0: cd57 d4bd c4fe 983d b4c4 583d df40 0ebd
00000200: 643c df3d 0706 a53e ac37 d6bd e49f 5fbf
00000210: 4410 3f3e 9622 8f3e 1826 81be 8f81 4f3d
00000220: a8d5 23be 82f4 70be 4a73 993e 82b7 4fbe
00000230: 7c47 723e 5c0b 9cbc 7267 50be 4a0c 6bbe
00000240: 1e6e 13be 95dc 233e 7163 633d 78a7 e2bd
00000250: 9bfc 363c 7493 4abe 0e70 31be 4667 34be
00000260: 18ec 343e 4f47 1dbe b350 05bf 9682 bc3d
00000270: 77d1 f9bc ee14 2c3e 93ad 763e 164d 90be
00000280: ddec 17be ab1d ad3c 9593 1b3e 7ff5 833e
00000290: b63b 473e 19c0 9ebe af59 e73e 5c60 2cbe
000002a0: 1905 afbe 3147 2cbe 192c 263e 50d7 41be
000002b0: f03b 0f3e 2ff3 6b3d fad0 a73e 1545 843e
000002c0: 6804 9fbd b650 e13d 5283 a13e 0ecd 73be
000002d0: f859 353e 5a4a 45be 1a05 913e 82ca 06bd
000002e0: 13aa c7bd 7efd 9cbd 5824 a83e 86e0 36be
000002f0: 594c 1bbe 21f4 55be 5bd1 cb3d 1256 a7be
00000300: f2ed 893e 30b4 ae3b 7793 003e 5089 6ebe
00000310: 83ff 79be 191e 3ebd aeb6 57be 4dba f43d
00000320: 4c47 183e e904 a43e 2beb 9cbe 3cc7 32be
00000330: a063 c0bd 1fec 4b3e 054c 1ebe e08a 8b3e
00000340: b7c1 32be 8bca 19be 333e 69be 6c9d 36be
00000350: 68d6 50be f4c1 343e 01dc a5be b67e 313f
00000360: 5866 4c3e a71f 48be dd59 be3b 22af 0bbd
00000370: 29c2 2a3e 88c8 92bc 5242 dc3d 7bd6 b33d
00000380: 12ac 87be aea9 1c3c 6485 8fbe fd1f cfbe
00000390: 9b52 1cbe c42b b73c 9614 6dbe b3ea ea3d
000003a0: 1d3b 123e 7e4a 5fbd 25b6 9fbe ee1a 843d
000003b0: 0c52 6fbe 11df 383d ba44 d93e bf3d e33e
000003c0: cabc 9ebb c0a8 01be 53b0 98bd 6d23 1dbe
000003d0: 09e0 5cbe 3052 3dbe bc4b 9d3e 030a a43d
000003e0: e0eb 023e 2783 bbbd b7ad a43d 3b03 1e3e
000003f0: 63a3 5d3e 763c 68be d368 08bc c8ca e73d

feature_layer.0.bias f4 [128]
-0.0062466282 0.2132643 0.16106214 -0.24089569 -0.19525239 -0.33106562 -0.05960774 0.014494117
0.077105746 -0.30126747 0.14522836 -0.07193581 -0.1344432 0.004370914 0.31613725 0.17708567
-0.20229785 0.2930181 0.35645798 -0.0029317455 -0.16522996 -0.0040507712 -0.1782325 0.021505987
-0.10511567 -0.23120697 -0.14475918 -0.14291024 0.25868767 -0.034397576 -0.1934161 0.19206853
-0.1759742 -0.053377695 -0.3479604 0.19484295 0.386617 -0.050847482 -0.27277184 0.22269341
-0.3733355 -0.26298028 0.08659027 0.05481778 -0.091136985 0.24334699 0.11623185 0.3917471
-0.062452924 -0.17210655 -0.15333484 -0.12902588 0.38626054 -0.18176211 0.2471055 0.18413827
0.05720059 -0.26280904 0.18429425 -0.035017885 0.07001288 -0.053920902 -0.3559676 0.19068544
-0.2411789 -0.17065488 -0.39003673 -0.15240888 0.023246145 0.08979608 -0.2268982 -0.11090797
-0.04811543 0.116964445 0.3910696 0.16182996 0.29560408 0.3106689 -0.02055619 0.07607902
0.20069817 0.16544649 0.00017361515 -0.25613254 -0.36677805 -0.11264839 -0.33011392 -0.002541743
0.09829984 -0.21186022 0.29143658 0.14441766 -0.22079211 -0.09131514 0.23410264 0.21992075
-0.28936926 0.059370786 0.023150796 -0.1173231 -0.09438773 -0.19528902 -0.1072569 -0.09882245
-0.13055272 0.014890517 0.18385074 0.050850958 0.12139135 0.31719616 0.51769876 -0.45419213
-0.033696637 -0.28000602 -0.05829326 0.07493602 0.15528007 0.22572353 -0.38580385 -0.13675824
-0.22257538 0.08649052 0.26921153 0.033779293 0.36508527 -0.22791843 0.14634892 -0.07013749
00000000: 84b0 ccbb f561 5a3e 79ed 243e 5cad 76be
00000010: 3ef0 47be 6f81 a9be 3f27 74bd bc78 6d3c
00000020: 9ee9 9d3d bb3f 9abe beb6 143e 1553 93bd
00000030: 7aab 09be e239 8f3b bedc a13e f255 353e
00000040: 2b27 4fbe 7806 963e a981 b63e 8722 40bb
00000050: 0b32 29be 55bc 84bb 9582 36be 532d b03c
00000060: e246 d7bd 85c1 6cbe c03b 14be 1057 12be
00000070: b672 843e 79e4 0cbd df0e 46be 9dad 443e
00000080: 9532 34be 92a2 5abd de27 b2be e984 473e
00000090: aaf2 c53e 7345 50bd c0a8 8bbe be09 643e
000000a0: d525 bfbe 5aa5 86be 3d56 b13d 9c88 603d
000000b0: 07a6 babd f42f 793e f70a ee3d 1393 c83e
000000c0: a3ce 7fbd b33c 30be cf03 1dbe 5c1f 04be
000000d0: f1c3 c53e d91f 3abe 3909 7d3e be8e 3c3e
000000e0: 2a4b 6a3d e88e 86be a2b7 3c3e ea6e 0fbd
000000f0: ea62 8f3d 2adc 5cbd 6341 b6be 0b43 433e
00000100: 9af7 76be 27c0 2ebe e5b2 c7be 1311 1cbe
00000110: b36e be3c 02e7 b73d 0058 68be b823 e3bd
00000120: af14 45bd 0e8b ef3d 463a c83e c1b6 253e
00000130: 6b59 973e fe0f 9f3e 7465 a8bc 51cf 9b3d
00000140: d283 4d3e ce6a 293e 760c 3639 ce23 83be
00000150: 55ca bbbe 33b4 e6bd b104 a9be 5f93 26bb
00000160: 6d51 c93d e3f1 58be 2d37 953e 39e2 133e
00000170: 5417 62be 6f03 bbbd 9ab8 6f3e e832 613e
00000180: 3528 94be c82e 733d bda6 bd3c 1847 f0bd
00000190: 5b4e c1bd d8f9 47be 81a9 dbbd 6d63 cabd
000001a0: 9daf 05be 5bf7 733c 5e43 3c3e 1849 503d
000001b0: 079c f83d 8967 a23e e887 043f df8b e8be
000001c0: 7c05 0abd f35c 8fbe eac4 6ebd 0e78 993d
000001d0: bd01 1f3e 1224 673e 1588 c5be 5a0a 0cbe
000001e0: cdea 63be f121 b13d 18d6 893e 285c 0a3d
000001f0: 75ec ba3e 7363 69be 7edc 153e 3fa4 8fbd

feature_layer.2.weight f4 [128]
0.91697484 0.9536461 1.0653603 0.945751 1.0372285 1.1018122 1.0050085 0.9700461
0.9786318 0.9193724 1.1499934 0.93626255 0.9045933 1.0264263 1.0434123 0.9797987
0.9915256 0.94894975 0.97627306 0.983869 0.9655203 1.053385 1.0003428 0.9083892
1.0809479 1.0763739 0.9324433 1.0088891 1.0662817 1.046598 1.0365006 1.0546753
0.88598156 0.91785824 1.1277833 0.8594743 0.9686377 0.9166398 1.0034918 0.9238013
1.001825 0.96961915 1.0584081 1.0287465 1.017238 0.95587516 0.8915998 1.0168123
1.0005442 0.9262632 1.0021813 0.93293476 1.0167642 0.94425637 1.114016 0.88214946
0.9539018 1.0394989 0.92986405 0.9883161 0.88501704 0.90305865 0.9566542 0.99499536
1.0096684 0.9288443 0.9715021 0.8352885 1.062226 1.0131551 1.0171876 0.86638796
0.95773643 1.0439136 0.9218362 0.9507301 1.0117792 0.9701814 0.90785706 0.905174
1.0536056 0.9220239 1.0707065 0.9016132 0.9737921 0.88705903 0.97617024 0.9209495
0.9053041 1.1057965 0.9600049 1.0180594 1.061382 0.96373826 0.91107357 1.0190227
1.0419402 0.880672 1.0443872 0.95862174 0.9337973 0.97791606 0.86541724 1.1934222
0.9495755 0.96736574 0.88601094 0.9343162 0.9891234 1.163712 0.926147 1.1393781
0.9269832 1.0259138 1.025093 0.93082416 0.9443515 0.9384477 1.0534706 0.89119345
0.9522285 1.1320958 0.91074586 0.9142741 0.8915148 0.97024757 0.93887883 0.9936613
00000000: ddbe 6a3f 2722 743f ba5d 883f bd1c 723f
00000010: e7c3 843f 2f08 8d3f 1ea4 803f f154 783f
00000020: 9d87 7a3f fd5b 6b3f fc32 933f e7ae 6f3f
00000030: 6d93 673f f061 833f 898e 853f 16d4 7a3f
00000040: 9fd4 7d3f 5fee 723f 08ed 793f d7de 7b3f
00000050: 572c 773f 52d5 863f 3c0b 803f 328c 683f
00000060: 805c 8a3f 9fc6 893f 9bb4 6e3f 4723 813f
00000070: eb7b 883f ecf6 853f 0dac 843f 9aff 863f
00000080: b0cf 623f c2f8 6a3f 345b 903f 8206 5c3f
00000090: a4f8 773f e8a8 6a3f 6b72 803f 3e7e 6c3f
000000a0: cd3b 803f f638 783f eb79 873f f7ad 833f
000000b0: db34 823f 3cb4 743f e23f 643f e826 823f
000000c0: d511 803f 961f 6d3f 7a47 803f d0d4 6e3f
000000d0: 5425 823f c9ba 713f 1498 8e3f 8cd4 613f
000000e0: e932 743f 4d0e 853f 920b 6e3f 4902 7d3f
000000f0: 7a90 623f da2e 673f 4ae7 743f 04b8 7e3f
00000100: d03c 813f bdc8 6d3f 5db4 783f 78d5 553f
00000110: 06f7 873f 11af 813f 3433 823f 9acb 5d3f
00000120: 372e 753f f69e 853f 75fd 6b3f 0c63 733f
00000130: fb81 813f cf5d 783f 5269 683f 7cb9 673f
00000140: 8cdc 863f c209 6c3f e90c 893f 1fd0 663f
00000150: 704a 793f 4d16 633f 4be6 793f 59c3 6b3f
00000160: 02c2 673f bd8a 8d3f e2c2 753f c54f 823f
00000170: 5edb 873f 8db7 763f 1e3c 693f 566f 823f
00000180: 4c5e 853f b873 613f 7bae 853f 3c68 753f
00000190: 570d 6f3f b558 7a3f fc8b 5d3f 0fc2 983f
000001a0: 6117 733f 48a5 773f 9dd1 623f 592f 6f3f
000001b0: 3137 7d3f 84f4 943f f817 6d3f 24d7 913f
000001c0: c54e 6d3f 2551 833f 3f36 833f 7e4a 6e3f
000001d0: 05c1 713f 1c3e 703f 20d8 863f 4125 643f
000001e0: 3fc5 733f 84e8 903f a426 693f de0d 6a3f
000001f0: 503a 643f 2562 783f 5d5a 703f 9660 7e3f

feature_layer.2.bias f4 [128]
-0.046496663 0.03394584 0.018490765 -0.0691241 0.0045005847 -0.05338957 -0.061064668 0.055102788
-0.00085417903 -0.08693034 0.031231118 0.088517465 0.07465626 0.056529425 0.033526536 0.049033966
0.034011107 0.069096275 -0.014409847 -0.00072398887 0.020546794 -0.018592086 -0.010984379 -0.007797004
0.0025878095 -0.005296984 0.067283265 0.015614681 0.001640578 0.035572004 0.023442864 0.045490872
-0.018055825 0.052920315 -0.040397774 0.15787828 0.08404136 -0.014364808 0.0023760085 0.10076172
-0.09279836 0.022045886 0.03466506 0.024926322 0.05515238 -0.0796212 0.08108379 0.057463113
-0.030270837 0.040799417 0.00734243 0.044933476 0.03702981 0.028785426 0.041797183 0.10997825
0.01766941 -0.08683184 0.053383473 -0.03860895 -0.08087989 0.11428651 0.029925145 -0.06555304
-0.010393921 0.06454765 0.018861692 0.07218048 -0.029336628 -0.013903501 -0.085121155 0.11517515
0.021989662 0.0131082265 0.117248185 -0.007308596 0.049143784 0.064306155 0.06622074 0.0058336398
0.0033334987 0.031744 -0.054417297 0.0009614496 0.014550158 0.11711222 0.028977323 0.101351164
0.11863023 0.021350253 -0.0056164805 0.022900159 -0.06448952 -0.005041874 0.09019234 0.056099504
-0.061590035 0.014633889 0.032648616 0.03666956 -0.018071786 0.019526906 0.035613164 0.055727653
-0.046239365 0.07410731 0.055040374 0.08016205 -0.0021947932 0.08086633 0.09379627 0.004196086
0.041590296 0.057229366 -0.032695603 -0.0245134 -0.047612652 0.09318578 -0.047462445 0.075399235
-0.015632901 0.041880406 0.042929206 -0.075792454 0.1244995 0.022982916 0.05494252 -0.024984116
00000000: 4973 3ebd cb0a 0b3d f279 973c f090 8dbd
00000010: a479 933b 06af 5abd f21e 7abd 76b3 613d
00000020: fcea 5fba 8908 b2bd 67d8 ff3c a548 b53d
00000030: 62e5 983d 668b 673d 1f53 093d d7d7 483d
00000040: 3b4f 0b3d 5982 8d3d 4717 6cbc 12ca 3dba
00000050: c051 a83c 6e4e 98bc d3f7 33bc 037e ffbb
00000060: 3d98 293b 5392 adbb cfcb 893d b8d4 7f3c
00000070: aa08 d73a f3b3 113d 400b c03c a354 3a3d
00000080: cfe9 93bc f9c2 583d 2378 25bd d8aa 213e
00000090: e01d ac3d 5f5a 6bbc cfb6 1b3b 295c ce3d
000000a0: 110d bebd 9399 b43c f3fc 0d3d 4932 cc3c
000000b0: 76e7 613d 7110 a3bd 420f a63d 715e 6b3d
000000c0: 8cfa f7bc 4a1d 273d c498 f03b 2a0c 383d
000000d0: 92ac 173d 6acf eb3c 8633 2b3d 473c e13d
000000e0: 70bf 903c e4d4 b1bd a1a8 5a3d 6b24 1ebd
000000f0: 5ba4 a5bd 0c0f ea3d 9425 f53c ac40 86bd
00000100: 444b 2abc 8f31 843d d683 9a3c 5cd3 933d
00000110: 5e53 f0bc 83cb 63bc 0054 aebd f3e0 eb3d
00000120: aa23 b43c e3c3 563c d11f f03d f27c efbb
00000130: fe4a 493d f2b2 833d bd9e 873d 1e28 bf3b
00000140: d476 5a3b ff05 023d ace4 5ebd ca09 7c3a
00000150: c963 6e3c 88d8 ef3d da61 ed3c 3391 cf3d
00000160: 68f4 f23d bae6 ae3c 740a b8bb 1d99 bb3c
00000170: 1513 84bd 4e36 a5bb c3b6 b83d 98c8 653d
00000180: d545 7cbd fbc2 6f3c 8eba 053d d232 163d
00000190: 480b 94bc e4f6 9f3c 1cdf 113d ae42 643d
000001a0: 7d65 3dbd 93c5 973d 0472 613d 002c a43d
000001b0: 85d6 0fbb 3f9d a53d 4218 c03d 527f 893b
000001c0: 965a 2a3d 5769 6a3d d3eb 05bd 53d0 c8bc
000001d0: 7c05 43bd 30d8 be3d fb67 42bd ea6a 9a3d
000001e0: 9210 80bc ca8a 2b3d 89d6 2f3d 1339 9bbd
000001f0: 98f9 fe3d ab46 bc3c 680b 613d 7dab ccbc

feature_layer.3.weight f4 [128, 128]
0.042100076 0.021626823 0.0778146 -0.057991162 0.14717717 0.03869236 0.002858702 0.065734014
0.056280285 -0.049231894 0.03245994 0.084821396 0.048073865 0.11476172 -0.03458448 0.032725815
-0.010801314 0.009721878 -0.044842288 -0.03778549 0.09927022 0.05708921 0.069806196 -0.053230613
0.06175693 0.09548802 -0.059715625 -0.06366874 0.106518626 -0.063396014 0.036389906 -0.074701294
-0.06235773 0.07494623 0.00697796 0.07824059 0.035858683 0.057105705 0.03552423 -0.020373864
-0.01125103 -0.051398456 -0.052616894 0.021242002 0.13865852 0.061077062 0.033802655 0.07060548
-0.0018910416 0.103721514 0.10726204 -0.025668072 0.0013366439 0.030254489 -0.018693648 -0.03729947
-0.10847421 0.003813788 0.040364437 0.09918942 -0.014621781 0.04099125 0.04547085 -0.07579205
-0.018727744 0.0059735277 0.02930227 0.005017233 0.05366301 -0.06066918 0.0037109202 0.05653392
0.016867517 -0.015336983 -0.07392222 0.08793617 0.033712205 -0.045889303 -0.03742467 0.05777523
-0.066972286 -0.08771383 -0.057490874 -0.033851948 0.0015928593 0.014000704 -0.082551576 0.100004986
0.08871391 -0.10730676 0.08081846 0.07051586 -0.10591541 -0.06570526 -0.0024072751 0.1480365
0.044509362 -0.0554543 -0.12946677 0.06729291 -0.06967614 0.14824717 0.030402804 -0.046890035
0.0034443727 -0.07656162 0.013904005 0.043224733 -0.07264889 0.049092684 0.008765775 0.067954905
0.002977343 0.04970683 -0.036755435 0.039678235 -0.040500324 0.06651162 -0.08917563 0.042047087
-0.13756724 0.072007544 -0.16087875 0.08226861 -0.009229675 -0.06839565 -0.04124213 -0.07528147
0.042542 -0.023411134 -0.085359365 -0.10828563 0.030405033 -0.09374774 -0.038076434 0.06941841
0.040538937 -0.1372437 -0.14751405 0.13561808 0.08085185 -0.08285577 -0.030820504 0.023144864
0.016578251 0.038538065 -0.06964141 -0.04687013 0.11700154 0.0635279 0.08037083 0.06854083
0.10011456 0.022045014 0.1363778 0.02387293 0.0013700487 -0.003622593 -0.006042059 0.015718749
-0.11811963 0.06064956 -0.08449432 -0.013165446 -0.000555759 0.028126223 -0.056933485 -0.053078406
-0.07269846 0.13773456 -0.10829896 0.08004475 0.071959145 -0.001171221 0.10246027 0.0078153405
0.0809477 0.109604634 0.072311826 0.0683908 -0.025203498 0.015603756 -0.18153824 0.041187633
-0.08383258 0.06855584 -0.089406915 0.10656118 0.03243816 -0.0072082896 0.042417992 -0.026724087
-0.00060388795 0.0971438 0.1571188 0.052936904 0.038844734 0.0030857045 -0.08847323 0.111931995
0.06913658 -0.12219635 -0.017446738 -0.10787207 0.022281693 0.07859708 0.116702706 -0.0096391225
0.008667263 0.028308468 0.023816809 -0.09125677 0.13190402 -0.030509746 0.056237973 0.036375243
-0.04752245 -0.03910733 0.012958215 0.13091135 0.102811225 -0.033578914 0.00071343954 -0.044812992
0.022554027 -0.09466007 0.08314766 -0.0019613043 -0.13085036 0.13925217 -0.018693767 0.07370608
-0.093073815 0.005127562 0.04225011 0.06537025 -0.11544457 -0.06035298 0.076610774 0.0844554
0.04086989 0.11678825 -0.031331223 0.073812775 0.010746268 -0.08733373 -0.051890984 0.10259499
0.07242893 -0.06754825 -0.0890422 0.033455692 -0.058069855 0.1167281 -0.033938996 -0.013297274
00000000: 2171 2c3d bc2a b13c 435d 9f3d 2488 6dbd
00000010: 9db5 163e e17b 1e3d 1059 3b3b 8e9f 863d
00000020: 2886 663d 62a7 49bd b7f4 043d d7b6 ad3d
00000030: 1ae9 443d 3108 eb3d 75a8 0dbd 810b 063d
00000040: fff7 30bc 8348 1f3c 8cac 37bd f5c4 1abd
00000050: 2f4e cb3d 60d6 693d 8df6 8e3d 5808 5abd
00000060: d6f4 7c3d 398f c33d 5f98 74bd c264 82bd
00000070: 7026 da3d c5d5 81bd 950d 153d fefc 98bd
00000080: d26a 7fbd 697d 993d 5fa7 e43b 9a3c a03d
00000090: 8ee0 123d ace7 693d db81 113d 17e7 a6bc
000000a0: 3d56 38bc 3087 52bd d084 57bd b503 ae3c
000000b0: 80fc 0d3e f12b 7a3d a774 0a3d 9b99 903d
000000c0: d4dc f7ba f26b d43d 33ac db3d d945 d2bc
000000d0: 5432 af3a 43d8 f73c 6c23 99bc 54c7 18bd
000000e0: ba27 debd bff0 793b 2e55 253d d323 cb3d
000000f0: 3290 6fbc 71e6 273d a43f 3a3d dd38 9bbd
00000100: ed6a 99bc 95bd c33b 500b f03c 9a67 a43b
00000110: bfcd 5b3d 3f80 78bd e932 733b 1d90 673d
00000120: bf2d 8a3c f847 7bbc 8864 97bd e117 b43d
00000130: cf15 0a3d 6cf6 3bbd 9c4a 19bd b8a5 6c3d
00000140: c428 89bd 4fa3 b3bd 8d7b 6bbd 57a8 0abd
00000150: 7dc7 d03a 3563 653c cd10 a9bd 6acf cc3d
00000160: a3af b53d a6c3 dbbd 2684 a53d 9f6a 903d
00000170: 2eea d8bd 7b90 86bd 60c3 1dbb e196 173e
00000180: 734f 363d 0c24 63bd f092 04be ddd0 893d
00000190: 5db2 8ebd 1bce 173e 4d0f f93c c40f 40bd
000001a0: fcba 613b 57cc 9cbd a0cd 633c 6b0c 313d
000001b0: f1c8 94bd 6915 493d 539e 0f3c f12b 8b3d
000001c0: 871f 433b 6499 4b3d de8c 16bd a585 223d
000001d0: abe3 25bd 3f37 883d b6a1 b6bd 9139 2c3d
000001e0: 6dde 0cbe b178 933d 66bd 24be 727c a83d
000001f0: 1038 17bc 0513 8cbd 82ed 28bd 2c2d 9abd
00000200: 8540 2e3d b5c8 bfbc e4d0 aebd dbc4 ddbd
00000210: fa13 f93c d1fe bfbd 09f6 1bbd 3d2b 8e3d
00000220: 280c 263d 9d89 0cbe ec0d 17be 77df 0a3e
00000230: a895 a53d 49b0 a9bd 487b fcbc 4c9a bd3c
00000240: 1dcf 873c 17da 1d3d 28a0 8ebd e5fa 3fbd
00000250: 819e ef3d ea1a 823d 7699 a43d 225f 8c3d
00000260: dd08 cd3d bf97 b43c 9fa6 0b3e 2a91 c33c
00000270: 3593 b33a 0669 6dbb 77fc c5bb 9bc4 803c
00000280: b4e8 f1bd ac6b 783d 5c0b adbd e2b3 57bc
00000290: 5bb0 11ba f768 e63c 1633 69bd be68 59bd
000002a0: eee2 94bd 4a0a 0d3e d8cb ddbd 80ee a33d
000002b0: 515f 933d a883 99ba b1d6 d13d ea0b 003c
000002c0: e8c7 a53d 6578 e03d 3918 943d 7a10 8c3d
000002d0: 9177 cebc e5a6 7f3c 29e5 39be 5db4 283d
000002e0: 6ab0 abbd 0167 8c3d f91a b7bd bf3c da3d
000002f0: e0dd 043d 8433 ecbb 7dbe 2d3d 79ec dabc
00000300: 3c4e 1eba 54f3 c63d c0e3 203e 5ed4 583d
00000310: a81b 1f3d 8839 4a3b 7431 b5bd 9a3c e53d
00000320: 7b97 8d3d 1442 fabd 76ec 8ebc 08ec dcbd
00000330: 1988 b63c 82f7 a03d d401 ef3d 69ed 1dbc
00000340: 2301 0e3c 29e7 e73c 781b c33c d4e4 babd
00000350: d911 073e 93ef f9bc ca59 663d 35fe 143d
00000360: e7a6 42bd 022f 20bd b14e 543c a00d 063e
00000370: b18e d23d 0b8a 09bd 1e06 3b3a d48d 37bd
00000380: 39c3 b83c 24dd c1bd 5249 aa3d 3a89 00bb
00000390: a3fd 05be 1f98 0e3e ac23 99bc 37f3 963d
000003a0: 7c9d bebd 1c05 a83b 740e 2d3d d6e0 853d
000003b0: 346e ecbd b034 77bd 1ce6 9c3d f4f6 ac3d
000003c0: 3067 273d ae2e ef3d 2b55 00bd 272b 973d
000003d0: 1d11 303c 07dc b2bd a48b 54bd 521d d23d
000003e0: 9e55 943d bd56 8abd c25b b6bd d608 093d
000003f0: a8da 6dbd 240f ef3d 9e03 0bbd cfdc 59bc

feature_layer.3.bias f4 [128]
-0.10042209 -0.14086284 0.062153373 -0.05006813 -0.082479484 -0.050048653 -0.015277264 -0.06840766
-0.010353296 -0.030662205 -0.020226875 -0.08492863 -0.047671705 0.004445131 -0.0028699357 -0.056686606
-0.13361453 -0.117056094 0.06752893 -0.07007598 0.07590998 0.078560874 0.056400627 -0.13421403
0.08771496 -0.048395053 0.05438188 0.085906446 0.05011174 0.00901412 0.029075019 0.024716895
0.010116225 -0.02217448 0.052315086 -0.093324825 0.0030133286 -0.114407815 -0.12436893 -0.14574829
0.038053293 0.036863055 -0.000587083 -0.0035504042 -0.047851484 -0.11072789 -0.010828626 -0.1735023
-0.10755068 -0.15018295 0.071309224 0.058379225 -0.021380026 -0.0007332297 -0.059252124 0.0371832
0.037057903 -0.032024607 -0.031491388 -0.1051135 -0.047186416 -0.14614807 -0.07321236 0.08332056
-0.017398128 0.012434353 -0.0022301031 -0.15720859 -0.013985642 -0.012739916 0.047089335 0.054116596
0.035684396 -0.04354188 -0.11922041 -0.0220598 -0.0736018 -0.051776454 -0.049906064 -0.04807608
-0.14177002 0.048874706 -0.059970696 0.009478988 -0.14896294 0.05114658 -0.038906712 -0.14101522
-0.12113562 -0.07195831 -0.06331252 0.07696032 -0.15324745 -0.15308961 -0.10791641 -0.08691796
-0.026936144 -0.08450286 -0.1730117 -0.057425357 -0.09214219 -0.004984306 0.075443156 -0.08241068
-0.037847202 -0.05036112 0.089344814 -0.12628908 -0.058996662 0.07591964 -0.060952064 -0.033131406
-0.08649754 -0.13786305 -0.062015455 -0.08402689 -0.08566102 -0.07828706 0.0953937 -0.0661404
-0.1380988 -0.017397089 -0.026707992 0.021142272 -0.055641867 -0.018406754 -0.18732236 0.11536634
00000000: 19aa cdbd 593e 10be 8994 7e3d 3d14 4dbd
00000010: 01eb a8bd d1ff 4cbd 7d4d 7abc 5119 8cbd
00000020: dfa0 29bc 4e2f fbbc d5b2 a5bc 10ef adbd
00000030: 6843 43bd 76a8 913b 8815 3cbb 3730 68bd
00000040: 3fd2 08be 1bbb efbd 9c4c 8a3d ff83 8fbd
00000050: b176 9b3d 86e4 a03d 5804 673d 676f 09be
00000060: e7a3 b33d e439 46bd 89bf 5e3d b8ef af3d
00000070: f841 4d3d f6af 133c bc2e ee3c 167b ca3c
00000080: 86be 253c 41a7 b5bc 5848 563d 1621 bfbd
00000090: 447b 453b a54e eabd 23b5 febd 0a3f 15be
000000a0: c5dd 1b3d b7fd 163d 79e6 19ba e6ad 68bb
000000b0: ebff 43bd 4ec5 e2bd 8d6a 31bc 96aa 31be
000000c0: 8843 dcbd 8fc9 19be 920a 923d 0e1f 6f3d
000000d0: 2a25 afbc 3636 40ba 5bb2 72bd 694d 183d
000000e0: 07ca 173d 3c2c 03bd 1dfd 00bd bf45 d7bd
000000f0: 8b46 41bd d7a7 15be 5df0 95bd f8a3 aa3d
00000100: 8586 8ebc 75b9 4b3c ec26 12bb 4afb 20be
00000110: 0924 65bc 15bb 50bc bfe0 403d 5da9 5d3d
00000120: cd29 123d f858 32bd d529 f4bd c1b6 b4bc
00000130: 8abc 96bd 8c13 54bd 4d6a 4cbd 6ceb 44bd
00000140: 292c 11be d830 483d d5a3 75bd c24d 1b3c
00000150: be89 18be 147f 513d a55c 1fbd 4b66 10be
00000160: f415 f8bd e15e 93bd ffa9 81bd 5f9d 9d3d
00000170: e6ec 1cbe 86c3 1cbe 4703 ddbd 0b02 b2bd
00000180: 30a9 dcbc d60f adbd fb29 31be da36 6bbd
00000190: 0bb5 bcbd 6453 a3bb f181 9a3d eec6 a8bd
000001a0: ab05 1bbd 7647 4ebd 6afa b63d ed51 01be
000001b0: 7ca6 71bd c27b 9b3d dfa8 79bd ccb4 07bd
000001c0: 9f25 b1bd f92b 0dbe eb03 7ebd 4a16 acbd
000001d0: 0b6f afbd f754 a0bd c65d c33d 9e74 87bd
000001e0: c669 0dbe 5784 8ebc b8ca dabc 8f32 ad3c
000001f0: bae8 63bd c3c9 96bc 6fd1 3fbe 3045 ec3d

feature_layer.5.weight f4 [128]
1.1293472 1.3289506 1.5821465 1.2306094 1.3727766 1.879856 1.3395752 1.4071847
1.267 1.3361038 1.2948515 1.1839505 1.3584146 1.2211179 1.2587869 1.3009368
1.3412226 1.3284986 1.7957144 1.3077958 1.1552243 1.1857306 1.1438355 1.4023254
1.2207507 1.358786 1.0920823 1.3102975 1.1857858 1.2002282 1.2621452 1.378738
1.310832 1.2478759 1.3318515 1.2938731 1.2972413 1.2965404 1.2796705 1.2775023
1.9055316 1.2383479 1.3722007 1.2980313 1.4339215 1.3290755 1.3310484 1.238583
1.2060853 1.273547 1.2095089 1.3023818 1.1333975 1.1768467 1.2127076 1.1781156
1.5442607 1.1929182 1.3399405 1.2262341 1.7549933 1.3260852 1.1785079 1.3857288
1.344161 1.5874336 1.2577443 1.25012 1.2956567 1.0542548 1.1756684 1.1702912
1.2213441 1.2896707 1.3388811 1.3159086 1.3134321 1.1659576 1.1990927 1.5313954
1.2536442 1.287902 1.1844673 1.2799319 1.3675345 1.192436 1.2778976 1.271589
1.2906716 1.2500901 1.3319069 1.1424906 1.3252453 1.4421061 1.4895779 1.2614969
1.3394421 1.2931114 1.2289071 1.3350474 1.278289 1.4984859 1.1848083 1.1646179
1.4670238 1.326398 1.1642569 1.2430487 1.3263668 1.1942065 1.2954602 1.3330778
1.2524534 1.252378 1.324046 1.2678345 1.4250805 1.3605855 1.2320608 1.2419138
1.2971369 1.3502933 1.2911805 1.1312535 1.9208738 1.2588787 1.3130808 1.2086802
00000000: 738e 903f 0e1b aa3f c783 ca3f 9c84 9d3f
00000010: 25b7 af3f 1f9f f03f 3377 ab3f a11e b43f
00000020: 0e2d a23f 7305 ab3f b2bd a53f b18b 973f
00000030: 88e0 ad3f 974d 9c3f ee1f a13f 1985 a63f
00000040: 2fad ab3f 3e0c aa3f f8d9 e53f da65 a73f
00000050: 64de 933f 05c6 973f 3469 923f 667f b33f
00000060: 8f41 9c3f b3ec ad3f 5ac9 8b3f d4b7 a73f
00000070: d4c7 973f 14a1 993f f98d a13f 7d7a b03f
00000080: 58c9 a73f 66ba 9f3f 1c7a aa3f a29d a53f
00000090: 010c a63f 09f5 a53f 3ecc a33f 3285 a33f
000000a0: 76e8 f33f 2f82 9e3f 46a4 af3f e425 a63f
000000b0: bd8a b73f 251f aa3f cb5f aa3f e389 9e3f
000000c0: 0161 9a3f 9703 a33f 30d1 9a3f 72b4 a63f
000000d0: 2b13 913f eaa2 963f 013a 9b3f 7ecc 963f
000000e0: 56aa c53f 8bb1 983f 2c83 ab3f 3df5 9c3f
000000f0: 9fa3 e03f 29bd a93f 59d9 963f 905f b13f
00000100: 780d ac3f 0631 cb3f c4fd a03f ef03 a03f
00000110: 14d8 a53f d2f1 863f 4d7c 963f 1acc 953f
00000120: 0155 9c3f ee13 a53f 7560 ab3f b16f a83f
00000130: 8b1e a83f 193e 953f df7b 993f c404 c43f
00000140: 6a77 a03f f9d9 a43f a09c 973f cfd4 a33f
00000150: 5f0b af3f bea1 983f 2692 a33f 6ec3 a23f
00000160: ba34 a53f f402 a03f ed7b aa3f 223d 923f
00000170: a3a1 a93f ef96 b83f 7daa be3f bb78 a13f
00000180: d772 ab3f ad84 a53f d44c 9d3f d5e2 aa3f
00000190: f99e a33f 63ce bf3f cca7 973f 3312 953f
000001a0: 70c7 bb3f 69c7 a93f 5f06 953f 381c 9f3f
000001b0: 63c6 a93f c2db 983f a4d1 a53f 4ba2 aa3f
000001c0: 6550 a03f ec4d a03f 577a a93f 6748 a23f
000001d0: 0a69 b63f aa27 ae3f 2bb4 9d3f 08f7 9e3f
000001e0: 9508 a63f 69d6 ac3f 6745 a53f eacc 903f
000001f0: 31df f53f f022 a13f 0813 a83f 08b6 9a3f

feature_layer.5.bias f4 [128]
-0.29330707 -0.3323637 0.27654582 -0.2882552 -0.28003755 0.27100775 -0.29985255 -0.30740613
-0.29574266 -0.2768399 -0.2899811 0.28951776 -0.28392535 0.2866439 0.34414482 -0.27016947
-0.3171153 -0.3145643 0.28942505 0.21429285 0.29104665 0.3102499 0.31041715 -0.29940644
0.309396 -0.30337706 -0.23138817 0.29030848 0.2412255 0.3033922 -0.25629708 0.29046923
-0.316757 -0.30697897 -0.27700287 -0.26245204 -0.299008 -0.34155196 -0.27014735 -0.2725144
0.26962698 0.3025914 -0.29991332 -0.32295468 -0.31489873 -0.2969193 -0.306721 -0.3276176
-0.2799516 -0.27257147 0.2919748 -0.28316614 0.30782315 0.2596085 0.32805088 -0.28334746
0.29117835 0.21928754 -0.31925774 -0.29141027 0.2938787 -0.3190758 -0.2693341 0.29148108
-0.31957784 0.28532287 0.330953 -0.2786707 -0.2917353 -0.22771446 0.2713163 0.28351885
0.32913882 0.2054559 -0.2809356 -0.2747114 -0.26830012 0.27894884 0.32977873 0.32910237
-0.28820282 0.3142375 0.2751303 -0.27938524 -0.27811524 0.30101502 -0.27878585 -0.28949383
-0.29471713 -0.27128616 -0.27870154 0.30517885 -0.3229731 -0.30451196 -0.3198943 -0.32004178
-0.2791454 -0.2760862 -0.2925045 -0.2721785 -0.28857744 0.26741827 0.3143346 0.29707235
0.3100898 -0.27906558 0.30776945 -0.28109196 -0.27533054 0.28805155 -0.28221223 -0.2692547
-0.2698883 -0.29034737 -0.2890296 -0.29380456 -0.29811287 -0.29558292 0.30453658 -0.27954045
-0.27397424 0.33004507 -0.3063086 0.28651682 0.32727483 -0.2630454 -0.27431917 0.28099984
00000000: 582c 96be 932b aabe 6a97 8d3e 3096 93be
00000010: 1561 8fbe 87c1 8a3e 4686 99be 5664 9dbe
00000020: 956b 97be f6bd 8dbe 6778 94be ac3b 943e
00000030: aa5e 91be fdc2 923e c033 b03e a753 8abe
00000040: f05c a2be 920e a1be 852f 943e 966f 5b3e
00000050: 1104 953e 13d9 9e3e ffee 9e3e cd4b 99be
00000060: 2769 9e3e 3d54 9bbe 05f1 6cbe 50a3 943e
00000070: d103 773e 3956 9b3e 5f39 83be 62b8 943e
00000080: f92d a2be 592c 9dbe 52d3 8dbe 1d60 86be
00000090: 9417 99be e6df aebe c150 8abe 0287 8bbe
000000a0: 8c0c 8a3e 43ed 9a3e 3d8e 99be 515a a5be
000000b0: 683a a1be ce05 98be 890a 9dbe 7ebd a7be
000000c0: d155 8fbe 7d8e 8bbe b97d 953e 27fb 90be
000000d0: ff9a 9d3e 68eb 843e 49f6 a73e eb12 91be
000000e0: 5415 953e ea8c 603e c075 a3be ba33 95be
000000f0: 4577 963e e75d a3be 29e6 89be 023d 953e
00000100: b59f a3be d715 923e ac72 a93e edad 8ebe
00000110: 545e 95be fb2d 69be f8e9 8a3e 6229 913e
00000120: e284 a83e 0863 523e cad6 8fbe f9a6 8cbe
00000130: a25e 89be 62d2 8e3e c2d8 a83e 1b80 a83e
00000140: 528f 93be bde3 a03e e1dd 8c3e 950b 8fbe
00000150: 1f65 8ebe a41e 9a3e 05bd 8ebe 8938 94be
00000160: 2ae5 96be 05e6 8abe f8b1 8ebe 6740 9c3e
00000170: bb5c a5be fee8 9bbe 30c9 a3be 84dc a3be
00000180: 25ec 8ebe 2c5b 8dbe 26c3 95be fb5a 8bbe
00000190: 6cc0 93be 0ceb 883e 77f0 a03e de19 983e
000001a0: 17c4 9e3e afe1 8ebe f593 9d3e 49eb 8fbe
000001b0: 20f8 8cbe 7e7b 933e 1f7e 90be c1db 89be
000001c0: cd2e 8abe 69a8 94be b0fb 93be 8d6d 96be
000001d0: 40a2 98be a556 97be 38ec 9b3e ed1f 8fbe
000001e0: 5a46 8cbe abfb a83e 7bd4 9cbe 55b2 923e
000001f0: 9190 a73e e3ad 86be 9073 8cbe 36df 8f3e

value_stream.0.weight f4 [64, 128]
-0.023418779 -0.36455444 0.52434665 -0.3073449 -0.3824106 0.9550708 -0.3372635 -0.4371217
-0.34910876 -0.3324212 -0.3745709 0.24476893 -0.4042614 0.30676144 0.33125967 -0.2439441
-0.2616777 -0.29065952 0.72014415 0.27839378 0.16455637 0.1460365 0.17308886 -0.34744355
0.15559459 -0.37299156 -0.1341893 0.2672943 0.15385555 0.17595576 -0.1874978 0.29269767
-0.33104265 -0.20889519 -0.25153947 -0.39567378 -0.32311133 -0.30737513 -0.24668442 -0.23655453
0.9018088 0.27764276 -0.3777479 -0.288032 -0.47233775 -0.28265393 -0.34433267 -0.2534196
-0.15521051 -0.20499922 0.2185225 -0.32738942 0.16180585 0.11125044 0.15708776 -0.22410886
0.57342696 0.18695678 -0.34772298 -0.30191404 0.8587024 -0.38066056 -0.11690995 0.33788392
-0.37087256 0.63407373 0.2350577 -0.30635804 -0.30792838 -0.010023634 0.17033674 0.21235247
0.23324709 0.41311714 -0.25867006 -0.38959584 -0.3445346 0.20116748 0.24976961 0.502075
-0.29208124 0.3420368 0.24864277 -0.31509364 -0.41453525 0.27967367 -0.22142008 -0.34700322
-0.26955503 -0.34243947 -0.4006009 0.13184923 -0.24712017 -0.42633435 -0.48937392 -0.27682954
-0.4031996 -0.22418344 -0.19285311 -0.30991098 -0.36168244 0.55550146 0.1964092 0.20184281
0.54697764 -0.3398298 0.1201023 -0.2650477 -0.35859632 0.14862283 -0.36525247 -0.37886718
-0.16903822 -0.21725772 -0.27305228 -0.32658234 -0.30575764 -0.40509558 0.27692434 -0.2985122
-0.3702245 0.33798334 -0.27345607 0.05609374 0.99644494 -0.3050572 -0.3605361 0.19971146
0.11827176 0.23694454 -0.5756229 0.27566797 0.29616022 -0.9969149 0.36868882 0.36959854
0.26367918 0.27855462 0.23214461 -0.14618695 0.23924789 -0.21767558 -0.24263841 0.37460917
0.3379478 0.24080804 -0.7524573 -0.3343829 -0.066729724 -0.09405643 -0.1250917 0.29963174
-0.08579225 0.27203462 0.08677735 -0.37158272 -0.1710117 -0.078451276 0.27713186 -0.25534412
0.27014017 0.31189635 0.23645517 0.33634612 0.29710037 0.16750523 0.36712688 0.35310128
-1.0355154 -0.15408248 0.37808937 0.24551608 0.30375063 0.34446108 0.26214516 0.17524338
0.18202807 0.31732112 -0.24882656 0.22072837 -0.18323073 -0.26202613 -0.08687765 0.19508806
-0.43425947 -0.17115602 0.33712542 0.28800654 -0.839198 0.30913904 0.25119376 -0.25827336
0.33671433 -0.62784755 -0.15658651 0.22669046 0.32073623 0.012411286 -0.26021922 -0.09572014
-0.24422233 -0.35135955 0.390635 0.33802205 0.33696204 -0.15342267 -0.12601347 -0.48813185
0.25450215 -0.33241165 -0.22244689 0.22979558 0.3981522 -0.19551544 0.17892976 0.27507085
0.33661753 0.24562283 0.27907825 -0.102015495 0.30403927 0.32703832 0.37565926 0.21217881
0.37061077 0.28476816 0.24275665 0.2695344 0.340357 -0.57191247 -0.22005424 -0.119788356
-0.532428 0.26741317 -0.14593388 0.15432122 0.30545726 -0.1769448 0.27241248 0.3942036
0.14303398 0.2181551 0.3458894 0.21466713 0.33118674 0.2577951 -0.19772424 0.29206327
0.23207891 -0.38909265 0.2638275 -0.0578075 -1.0046898 0.22360526 0.32459202 -0.12115534
00000000: bdd8 bfbc e1a6 babe 953b 063f 505c 9dbe
00000010: 52cb c3be 857f 743f cdad acbe 6ace dfbe
00000020: 62be b2be 1d33 aabe c2c7 bfbe b5a4 7a3e
00000030: 5afb cebe d60f 9d3e de9a a93e 7bcc 79be
00000040: 9ffa 85be 53d1 94be 5e5b 383f a189 8e3e
00000050: 7781 283e 988a 153e 353e 313e 1fe4 b1be
00000060: 3054 1f3e c0f8 bebe eb68 09be ccda 883e
00000070: 4f8c 1d3e bf2d 343e 6cff 3fbe 78dc 953e
00000080: 6c7e a9be 9fe8 55be c8c9 80be c195 cabe
00000090: d96e a5be 4660 9dbe d79a 7cbe 5a3b 72be
000000a0: f1dc 663f 3127 8e3e 2c68 c1be ee78 93be
000000b0: 41d6 f1be 04b8 90be 5f4c b0be 37c0 81be
000000c0: 81ef 1ebe 51eb 51be 5dc4 5f3e 969f a7be
000000d0: 6fb0 253e 45d7 e33d 9ddb 203e cb7c 65be
000000e0: 1ccc 123f 9971 3f3e bf08 b2be 7a94 9abe
000000f0: ecd3 5b3f f1e5 c2be 7c6e efbd 1fff ac3e
00000100: 02e3 bdbe a852 223f f7b2 703e f6da 9cbe
00000110: caa8 9dbe 2b3a 24bc c16c 2e3e ed72 593e
00000120: 53d8 6e3e 1784 d33e 6770 84be 1b79 c7be
00000130: d766 b0be d9fe 4d3e 9bc3 7f3e fd87 003f
00000140: ac8b 95be 731f af3e 369c 7e3e f453 a1be
00000150: f73d d4be 6331 8f3e f2bb 62be 68aa b1be
00000160: 1e03 8abe 3a54 afbe 901b cdbe 7c03 073e
00000170: 120d 7dbe 7f48 dabe 388f fabe 9abc 8dbe
00000180: 2e70 cebe 5890 65be 497b 45be a7ac 9ebe
00000190: 712e b9be 5835 0e3f 7e1f 493e e2af 4e3e
000001a0: ba06 0c3f 2cfe adbe 32f8 f53d 55b4 87be
000001b0: f099 b7be 9530 183e 5f02 bbbe e1fa c1be
000001c0: 5b18 2dbe cf78 5ebe 82cd 8bbe cd35 a7be
000001d0: 448c 9cbe b068 cfbe 07c9 8d3e 97d6 98be
000001e0: 118e bdbe 270c ad3e 6f02 8cbe 8dc2 653d
000001f0: 0417 7f3f 7530 9cbe 3098 b8be 2981 4c3e
00000200: 7738 f23d 97a1 723e 065c 13bf 5a24 8d3e
00000210: 50a2 973e d135 7fbf c8c4 bc3e 053c bd3e
00000220: f500 873e b69e 8e3e 51b7 6d3e 08b2 15be
00000230: 66fd 743e 59e6 5ebe 3476 78be c6cc bf3e
00000240: 7e07 ad3e 6296 763e 0ba1 40bf 3c34 abbe
00000250: 98a9 88bd a8a0 c0bd 0a18 00be 5569 993e
00000260: d9b3 afbd 1f48 8b3e 53b8 b13d 1740 bebe
00000270: b11d 2fbe 10ab a0bd 3ae4 8d3e 77bc 82be
00000280: d04f 8a3e e1b0 9f3e 4e21 723e 8f35 ac3e
00000290: 8a1d 983e 7e86 2b3e 0ef8 bb3e b1c9 b43e
000002a0: c58b 84bf ccc7 1dbe ee94 c13e 9168 7b3e
000002b0: 3485 9b3e 345d b03e e437 863e 0073 333e
000002c0: 9165 3a3e ea77 a23e 64cc 7ebe 9e06 623e
000002d0: d6a0 3bbe 4a28 86be e9ec b1bd 2ac5 473e
000002e0: 4257 debe 8643 2fbe b49b ac3e 9875 933e
000002f0: aed5 56bf 7947 9e3e 789c 803e 683c 84be
00000300: d265 ac3e 9eba 20bf 3758 20be 8b21 683e
00000310: 8a37 a43e b558 4b3c 743b 85be ec08 c4bd
00000320: 6b15 7abe 66e5 b3be 5001 c83e 3a11 ad3e
00000330: 4a86 ac3e d51a 1dbe ad09 01be 6bec f9be
00000340: 1b4e 823e dc31 aabe 1ec9 63be 884f 6b3e
00000350: 9bda cb3e 3335 48be 5d39 373e 16d6 8c3e
00000360: 2259 ac3e 8d84 7b3e 58e3 8e3e 80ed d0bd
00000370: 09ab 9b3e 9171 a73e 6956 c03e 6745 593e
00000380: b2c0 bd3e 22cd 913e 3395 783e 6a00 8a3e
00000390: 4643 ae3e db68 12bf e655 61be 9953 f5bd
000003a0: 344d 08bf 61ea 883e b16f 15be 6206 1e3e
000003b0: e564 9c3e 0531 35be a679 8b3e 0ed5 c93e
000003c0: 8077 123e 0d64 5f3e 6a18 b13e b3d1 5b3e
000003d0: 4f91 a93e b8fd 833e 3978 4abe 5189 953e
000003e0: 18a6 6d3e 2737 c7be 6614 873e 8fc7 6cbd
000003f0: ad99 80bf c7f8 643e ed30 a63e 4a20 f8bd

value_stream.0.bias f4 [64]
0.29996774 -0.31317514 -0.18116708 -0.3183776 -0.26573214 0.24184424 -0.2893801 0.27989885
-0.18993635 -0.32748133 0.37991598 -0.34217784 -0.282364 0.32330197 -0.27178416 -0.2111
-0.29132056 0.37954205 -0.327464 -0.27602544 0.32330358 0.3214219 -0.29251224 0.24742368
-0.22694884 0.35673073 0.38231316 -0.28123108 -0.3300931 -0.27916425 0.35046852 -0.32134596
-0.24424504 0.31771547 -0.32042113 -0.3006687 0.32620692 -0.33592787 0.3508372 -0.2677323
-0.27589425 0.24850644 0.24021433 0.25878215 0.31274778 -0.28830555 0.24099497 -0.3213562
0.2522366 -0.22716305 0.34819272 -0.33640465 -0.30053148 -0.34782055 -0.32282084 -0.29592824
-0.2854106 0.3330315 -0.34147966 0.29558283 0.27776846 0.25845942 -0.20801531 -0.22526564
00000000: 5f95 993e 7e58 a0be dd83 39be 6402 a3be
00000010: 0b0e 88be 04a6 773e a129 94be e74e 8f3e
00000020: ad7e 42be a2ab a7be 5984 c23e ef31 afbe
00000030: 0492 90be d687 a53e 4b27 8bbe 992a 58be
00000040: f827 95be 5653 c23e 5da9 a7be 3553 8dbe
00000050: 0c88 a53e 6991 a43e 2ac4 95be a25c 7d3e
00000060: 4765 68be 69a5 b63e 8dbe c33e 85fd 8fbe
00000070: f601 a9be 9eee 8ebe 9c70 b33e 7587 a4be
00000080: 5f1b 7abe 9aab a23e 3d0e a4be 3ff1 99be
00000090: 9804 a73e bdfe abbe efa0 b33e 3514 89be
000000a0: 0342 8dbe 7978 7e3e bffa 753e 187f 843e
000000b0: 7a20 a03e c99c 93be 63c7 763e cd88 a4be
000000c0: 2825 813e 6e9d 68be 5146 b23e 3b3d acbe
000000d0: 43df 99be 8915 b2be c648 a5be e883 97be
000000e0: 5721 92be 1b83 aa3e 6cd6 aebe a256 973e
000000f0: ab37 8e3e cb54 843e f701 55be 09ac 66be

value_stream.2.weight f4 [1, 64]
0.5300041 -0.49251643 -0.45004538 -0.4662638 -0.4803415 0.48088962 -0.5148653 0.48435652
-0.545762 -0.451534 0.47126967 -0.53773063 -0.5063711 0.45271358 -0.46540266 -0.5553649
-0.48556545 0.52251935 -0.43313184 -0.48844928 0.5695601 0.48684683 -0.478185 0.50843
-0.48135886 0.59737146 0.49815044 -0.52797455 -0.4807238 -0.5106733 0.45524108 -0.5404045
-0.5174109 0.5632857 -0.44597667 -0.45943236 0.5358598 -0.47253227 0.47417745 -0.4857205
-0.46471554 0.4509962 0.5857608 0.54728407 0.5327445 -0.52827233 0.48466235 -0.48066923
0.5617688 -0.45559657 0.527041 -0.45758536 -0.46906975 -0.5137198 -0.4829736 -0.4529394
-0.45314154 0.56549 -0.43752944 0.522246 0.5229483 0.5374009 -0.52091783 -0.45263594
00000000: 59ae 073f 1d2b fcbe 596c e6be 21ba eebe
00000010: 52ef f5be 2a37 f63e 36ce 03bf 94fd f73e
00000020: 0fb7 0bbf 772f e7be 424a f13e b7a8 09bf
00000030: 89a1 01bf 13ca e73e 4249 eebe 652c 0ebf
00000040: 099c f8be d4c3 053f 75c3 ddbe 0616 fabe
00000050: b1ce 113f fd43 f93e aad4 f4be 7828 023f
00000060: ab74 f6be 56ed 183f 930d ff3e 5729 07bf
00000070: 6e21 f6be 7cbb 02bf 5c15 e93e f357 0abf
00000080: 0a75 04bf 7e33 103f 0e57 e4be b83a ebbe
00000090: 1c2e 093f c0ef f1be 63c7 f23e 5bb0 f8be
000000a0: 32ef edbe f9e8 e63e 6bf4 153f cf1a 0c3f
000000b0: f261 083f db3c 07bf aa25 f83e 471a f6be
000000c0: 14d0 0f3f f443 e9be 29ec 063f a148 eabe
000000d0: e929 f0be 2483 03bf 5148 f7be ace7 e7be
000000e0: 2b02 e8be f4c3 103f dc03 e0be eab1 053f
000000f0: f1df 053f 1b93 093f df5a 05bf e6bf e7be

advantage_stream.0.weight f4 [64, 128]
0.11713868 -0.043315325 0.03429499 -0.12747636 -0.012101818 0.060748637 -0.06484279 0.05671484
0.07350442 -0.14787117 0.09616834 -0.017307209 0.07883435 -0.042777304 0.102756105 -0.062149648
-0.08698429 -0.1070342 0.22318378 0.20345163 -0.06065651 -0.0685249 0.083227925 -0.008737168
0.027015166 -0.08617637 -0.15322873 -0.17442338 0.19933653 0.04991141 0.19748105 0.030329013
-0.16455562 -0.080335684 0.084711954 -0.062193494 -0.073476054 -0.182467 -0.05983065 -0.16362484
0.18203108 0.1460725 -0.13930063 -0.13616921 -0.080705136 0.06049674 0.050343093 -0.034937866
0.03225754 0.004691102 0.012940903 0.0100421375 -0.03662214 0.15257694 0.057244807 0.04987791
0.15243647 0.10605137 -0.006819777 -0.14177798 0.02642983 -0.04703523 -0.06479557 -0.008446486
-0.14332938 0.16809602 0.026396723 -0.036006484 0.010731667 0.26666096 -0.0832009 -0.12491523
-0.031253766 -0.22798821 0.043651037 0.10515684 -0.038920157 -0.078600556 0.00610231 -0.0400937
-0.049558222 0.22760504 -0.25584337 0.022112327 0.08090557 -0.09146492 -0.047351506 -0.012208277
0.013569676 -0.030754142 -0.04823346 0.13604653 -0.068795465 -0.042632185 0.11441588 -0.1392253
0.041650746 -0.027080359 -0.14156386 0.13141507 -0.012715762 -0.23354168 -0.04303925 -0.15133503
-0.08511792 0.0821953 -0.008826135 -0.03428722 0.004628057 -0.05266817 0.2427291 0.06854867
-0.20001571 -0.018793426 0.08796669 -0.02980302 -0.16828422 0.008381673 0.046567827 0.05878214
-0.089325815 0.027679512 -0.15912959 -0.1739887 0.09107839 0.10159705 0.08784524 -0.10876847
-0.023719443 -0.025457865 0.12445801 0.009279576 0.021742359 0.23039913 -0.08739258 -0.0620084
0.048547845 0.013046016 0.068831936 -0.024611454 0.017433336 -0.1547708 0.08110491 -0.099042386
0.0147408955 -0.0076745427 0.11275921 0.124746755 -0.0703452 0.11376628 -0.10904423 -0.04942287
-0.0025166147 -0.02370139 -0.011226143 0.030756392 -0.03445745 -0.00840249 0.14454763 -0.19162372
0.02243105 0.05091582 0.11613352 8.295028e-06 -0.01681514 -0.09811542 0.0787056 -0.008705165
0.060897104 0.029117996 -0.041789256 0.087093934 0.12485261 -0.026526554 0.059266463 0.010939812
0.044525556 0.03661031 -0.059628647 0.18287258 -0.23866603 -0.1268057 0.11450634 0.09465401
0.09209983 0.2741642 0.045087826 0.003818502 0.051327668 -0.080501296 0.081542954 0.051176984
-0.09498647 0.15406388 -0.08761381 -0.088558085 0.023768768 0.31257725 0.044052426 -0.11804901
0.033177536 -0.17714567 -0.08474432 0.10351121 -0.035260882 0.030670736 -0.022660235 -0.011167877
0.025298616 0.1676076 -0.07988163 -0.054816015 -0.07392522 -0.17055438 -0.033904206 0.011822722
-0.022873076 0.12324375 -0.10236828 0.12158521 0.009264934 -0.0716868 -0.076520495 -0.0022902645
-0.002628476 -0.05792991 0.040834337 -0.009304401 0.10546149 -0.105648145 0.05297395 -0.18028222
0.028331222 -0.03937991 -0.03224653 -0.038108684 0.06358912 -0.0043255263 0.12103737 0.06678615
-0.09065406 0.0032789607 0.059116583 0.051858902 -0.035184123 0.015978169 0.013315944 0.10156442
0.038921468 -0.007969368 -0.083991624 -0.18260753 -0.21547459 0.08342745 -0.09362204 -0.04471534
00000000: 67e6 ef3d 696b 31bd e778 0c3d 2a89 02be
00000010: b446 46bc 90d3 783d 4ccc 84bd d24d 683d
00000020: 7c89 963d 8a6b 17be e8f3 c43d d9c7 8dbc
00000030: e773 a13d 4137 2fbd cb71 d23d a190 7ebd
00000040: d224 b2bd bf34 dbbd 4a8a 643e a055 503e
00000050: f672 78bd c856 8cbd 6773 aa3d 5726 0fbc
00000060: e94e dd3c 3d7d b0bd fee7 1cbe 0b9c 32be
00000070: e01e 4c3e e86f 4c3d 7938 4a3e 8d74 f83c
00000080: 4581 28be 0987 a4bd 767d ad3d 9bbe 7ebd
00000090: 9d7a 96bd a1d8 3abe fc10 75bd 458d 27be
000000a0: 5b66 3a3e 0894 153e d3a4 0ebe f16f 0bbe
000000b0: bc48 a5bd 6ecb 773d 8f34 4e3d 021b 0fbd
000000c0: 7b20 043d d1b7 993b 1506 543c c787 243c
000000d0: 1901 16bd 213d 1c3e 8879 6a3d c84c 4c3d
000000e0: 4e18 1c3e 7631 d93d 7078 dfbb 3f2e 11be
000000f0: 5f83 d83c 03a8 40bd 8ab3 84bd 2163 0abc
00000100: f0c4 12be 5d21 2c3e f13d d83c 897b 13bd
00000110: e0d3 2f3c c987 883e 3c65 aabd 8ed3 ffbd
00000120: f303 00bd be75 69be 6ecb 323d 785c d73d
00000130: be6a 1fbd 54f9 a0bd e3f5 c73b 4b39 24bd
00000140: 90fd 4abd 4c11 693e e7fd 82be e924 b53c
00000150: d2b1 a53d f651 bbbd a7f3 41bd 3a05 48bc
00000160: 5953 5e3c 1cf0 fbbc 7390 45bd c84f 0b3e
00000170: a3e4 8cbd 169f 2ebd df52 ea3d 1491 0ebe
00000180: f999 2a3d a1d7 ddbc 1ef6 10be ac91 063e
00000190: c555 50bc 8d25 6fbe ed49 30bd 92f7 1abe
000001a0: 4e52 aebd 0256 a83d 7e9b 10bc c270 0cbd
000001b0: f5a6 973b 94ba 57bd fa8d 783e 3f63 8c3d
000001c0: ebd0 4cbe acf4 99bc e127 b43d 7725 f4bc
000001d0: b352 2cbe 4953 093c e8bd 3e3d 8bc5 703d
000001e0: 74f0 b6bd 25c0 e23c def2 22be 182a 32be
000001f0: 4f87 ba3d 1d12 d03d 35e8 b33d 01c2 debd
00000200: 474f c2bc 038d d0bc d7e3 fe3d 5d09 183c
00000210: 081d b23c c0ed 6b3e e2fa b2bd 85fc 7dbd
00000220: 1bda 463d f5be 553c c2f7 8c3d f69d c9bc
00000230: 5bd0 8e3c 3d7c 1ebe 551a a63d bcd6 cabd
00000240: cc83 713c bb7a fbbb 4dee e63d 3a7b ff3d
00000250: 2511 90bd 4cfe e83d 9552 dfbd a36f 4abd
00000260: caed 24bb 6b29 c2bc dbed 37bc d4f4 fb3c
00000270: 4123 0dbd 99aa 09bc 4b04 143e 0239 44be
00000280: 52c1 b73c 1b8d 503d 69d7 ed3d e02a 0b37
00000290: e8bf 89bc bdf0 c8bd 6730 a13d 1ca0 0ebc
000002a0: 3e6f 793d dd88 ee3c 362b 2bbd 4e5e b23d
000002b0: bab2 ff3d 374e d9bc 64c1 723d e63c 333c
000002c0: 6e60 363d b1f4 153d 2b3d 74bd f342 3b3e
000002d0: de64 74be 5ad9 01be 4d82 ea3d f6d9 c13d
000002e0: d69e bc3d 405f 8c3e 03ae 383d d53f 7a3b
000002f0: f63c 523d dddd a4bd feff a63d f59e 513d
00000300: 4488 c2bd ecc2 1d3e df6e b3bd f15d b5bd
00000310: b8b6 c23c 200a a03e 5170 343d aec3 f1bd
00000320: 2be5 073d ad65 35be 6e8e adbd affd d33d
00000330: b76d 10bd 3241 fb3c f5a1 b9bc 79f9 36bc
00000340: 0b3f cf3c 54a1 2b3e fb98 a3bd c286 60bd
00000350: 1b66 97bd cfa5 2ebe 23df 0abd 17b4 413c
00000360: 5160 bbbc 3867 fc3d 76a6 d1bd ab01 f93d
00000370: f3cb 173c 87d0 92bd c7b6 9cbd 4318 16bb
00000380: 8242 2cbb ea47 6dbd e841 273d 7d71 18bc
00000390: 32fc d73d 0e5e d8bd 36fb 583d e79b 38be
000003a0: e116 e83c d44c 21bd f014 04bd da17 1cbd
000003b0: 033b 823d 25bd 8dbb 71e2 f73d 2dc7 883d
000003c0: d6a8 b9bd d5e3 563b 3b24 723d 006a 543d
000003d0: 3a1d 10bd a6e4 823c 1e2b 5a3c 0201 d03d
000003e0: 1e6c 1f3d f491 02bc cd03 acbd 78fd 3abe
000003f0: 5fa5 5cbe 03dc aa3d e9bc bfbd 6f27 37bd

advantage_stream.0.bias f4 [64]
-0.040500868 -0.08093699 0.012006244 0.051988002 -0.08699015 0.08978465 -0.09069598 0.011744413
-0.0399993 -0.06970028 -0.099123426 -0.12591647 -0.05923579 0.07430534 -0.029761087 0.04566327
0.10255931 0.106218114 0.010491749 0.03886357 0.021634277 0.04804402 -0.02693898 0.024987718
-0.1371692 -0.0029965057 0.023052374 0.077537775 -0.00010442437 0.050926983 0.0915569 -0.004864271
0.10210065 0.073078096 0.02385213 0.09855478 0.0011612521 0.006895297 0.0051289583 0.051453166
-0.022709072 0.006942018 0.013078786 0.016444396 0.14196122 0.04085475 0.08854486 0.081085205
-0.04433317 -0.09062113 -0.02371532 0.074871495 0.0648152 0.10132881 -0.095790885 -0.056790896
-0.027361171 -0.05068692 0.05291809 -0.010380935 0.031256244 0.049894556 0.04122056 -0.0385002
00000000: 3de4 25bd 4bc2 a5bd d6b5 443c 5ff1 543d
00000010: e427 b2bd 04e1 b73d d0be b9bd a36b 403c
00000020: 4ed6 23bd 05bf 8ebd 3901 cbbd 3ff0 00be
00000030: 3aa1 72bd 662d 983d 86cd f3bc 6909 3b3d
00000040: 9e0a d23d e288 d93d 96e5 2b3c 682f 1f3d
00000050: 5e3a b13c cec9 443d 23af dcbc 0bb3 cc3c
00000060: 1576 0cbe 0661 44bb 55d8 bc3c 20cc 9e3d
00000070: 68fe dab8 d098 503d 2f82 bb3d 7664 9fbb
00000080: 251a d13d f8a9 953d 8b65 c33c 17d7 c93d
00000090: 2835 983a f2f1 e13b d210 a83b 8ec0 523d
000000a0: 6008 babc de79 e33b 6848 563c 66b6 863c
000000b0: 485e 113e 4f57 273d 0257 b53d 0010 a63d
000000c0: b396 35bd 9297 b9bd a146 c2bc 3a56 993d
000000d0: d5bd 843d 7b85 cf3d 032e c4bd 929d 68bd
000000e0: 8924 e0bc 169d 4fbd a4c0 583d cc14 2abc
000000f0: 8c06 003d 3c5e 4c3d e4d6 283d 63b2 1dbd
